{"format": "layers-model", "generatedBy": "keras v2.15.0", "convertedBy": "TensorFlow.js Converter v4.17.0", "modelTopology": {"keras_version": "2.15.0", "backend": "tensorflow", "model_config": {"class_name": "Sequential", "config": {"name": "sequential_8", "layers": [{"class_name": "InputLayer", "config": {"batch_input_shape": [null, 256, 256, 3], "dtype": "float32", "sparse": false, "ragged": false, "name": "Model_input"}}, {"class_name": "Functional", "config": {"name": "Model", "trainable": false, "layers": [{"module": "keras.layers", "class_name": "InputLayer", "config": {"batch_input_shape": [null, 256, 256, 3], "dtype": "float32", "sparse": false, "ragged": false, "name": "input_11"}, "registered_name": null, "name": "input_11", "inbound_nodes": []}, {"module": "keras.layers", "class_name": "ZeroPadding2D", "config": {"name": "zero_padding2d_372", "trainable": false, "dtype": "float32", "padding": [[3, 3], [3, 3]], "data_format": "channels_last"}, "registered_name": null, "build_config": {"input_shape": [null, 256, 256, 3]}, "name": "zero_padding2d_372", "inbound_nodes": [[["input_11", 0, 0, {}]]]}, {"module": "keras.layers", "class_name": "Conv2D", "config": {"name": "conv2d_1102", "trainable": false, "dtype": "float32", "filters": 64, "kernel_size": [7, 7], "strides": [2, 2], "padding": "valid", "data_format": "channels_last", "dilation_rate": [1, 1], "groups": 1, "activation": "linear", "use_bias": true, "kernel_initializer": {"module": "keras.initializers", "class_name": "GlorotUniform", "config": {"seed": null}, "registered_name": null}, "bias_initializer": {"module": "keras.initializers", "class_name": "Zeros", "config": {}, "registered_name": null}, "kernel_regularizer": null, "bias_regularizer": null, "activity_regularizer": null, "kernel_constraint": null, "bias_constraint": null}, "registered_name": null, "build_config": {"input_shape": [null, 262, 262, 3]}, "name": "conv2d_1102", "inbound_nodes": [[["zero_padding2d_372", 0, 0, {}]]]}, {"module": "keras.layers", "class_name": "ZeroPadding2D", "config": {"name": "zero_padding2d_373", "trainable": false, "dtype": "float32", "padding": [[1, 1], [1, 1]], "data_format": "channels_last"}, "registered_name": null, "build_config": {"input_shape": [null, 128, 128, 64]}, "name": "zero_padding2d_373", "inbound_nodes": [[["conv2d_1102", 0, 0, {}]]]}, {"module": "keras.layers", "class_name": "MaxPooling2D", "config": {"name": "max_pooling2d_37", "trainable": false, "dtype": "float32", "pool_size": [3, 3], "padding": "valid", "strides": [2, 2], "data_format": "channels_last"}, "registered_name": null, "build_config": {"input_shape": [null, 130, 130, 64]}, "name": "max_pooling2d_37", "inbound_nodes": [[["zero_padding2d_373", 0, 0, {}]]]}, {"module": "keras.layers", "class_name": "BatchNormalization", "config": {"name": "batch_normalization_1059", "trainable": false, "dtype": "float32", "axis": [3], "momentum": 0.99, "epsilon": 1.001e-05, "center": true, "scale": true, "beta_initializer": {"module": "keras.initializers", "class_name": "Zeros", "config": {}, "registered_name": null}, "gamma_initializer": {"module": "keras.initializers", "class_name": "Ones", "config": {}, "registered_name": null}, "moving_mean_initializer": {"module": "keras.initializers", "class_name": "Zeros", "config": {}, "registered_name": null}, "moving_variance_initializer": {"module": "keras.initializers", "class_name": "Ones", "config": {}, "registered_name": null}, "beta_regularizer": null, "gamma_regularizer": null, "beta_constraint": null, "gamma_constraint": null}, "registered_name": null, "build_config": {"input_shape": [null, 64, 64, 64]}, "name": "batch_normalization_1059", "inbound_nodes": [[["max_pooling2d_37", 0, 0, {}]]]}, {"module": "keras.layers", "class_name": "Activation", "config": {"name": "activation_1059", "trainable": false, "dtype": "float32", "activation": "relu"}, "registered_name": null, "build_config": {"input_shape": [null, 64, 64, 64]}, "name": "activation_1059", "inbound_nodes": [[["batch_normalization_1059", 0, 0, {}]]]}, {"module": "keras.layers", "class_name": "Conv2D", "config": {"name": "conv2d_1104", "trainable": false, "dtype": "float32", "filters": 64, "kernel_size": [1, 1], "strides": [1, 1], "padding": "valid", "data_format": "channels_last", "dilation_rate": [1, 1], "groups": 1, "activation": "linear", "use_bias": false, "kernel_initializer": {"module": "keras.initializers", "class_name": "GlorotUniform", "config": {"seed": null}, "registered_name": null}, "bias_initializer": {"module": "keras.initializers", "class_name": "Zeros", "config": {}, "registered_name": null}, "kernel_regularizer": null, "bias_regularizer": null, "activity_regularizer": null, "kernel_constraint": null, "bias_constraint": null}, "registered_name": null, "build_config": {"input_shape": [null, 64, 64, 64]}, "name": "conv2d_1104", "inbound_nodes": [[["activation_1059", 0, 0, {}]]]}, {"module": "keras.layers", "class_name": "BatchNormalization", "config": {"name": "batch_normalization_1060", "trainable": false, "dtype": "float32", "axis": [3], "momentum": 0.99, "epsilon": 1.001e-05, "center": true, "scale": true, "beta_initializer": {"module": "keras.initializers", "class_name": "Zeros", "config": {}, "registered_name": null}, "gamma_initializer": {"module": "keras.initializers", "class_name": "Ones", "config": {}, "registered_name": null}, "moving_mean_initializer": {"module": "keras.initializers", "class_name": "Zeros", "config": {}, "registered_name": null}, "moving_variance_initializer": {"module": "keras.initializers", "class_name": "Ones", "config": {}, "registered_name": null}, "beta_regularizer": null, "gamma_regularizer": null, "beta_constraint": null, "gamma_constraint": null}, "registered_name": null, "build_config": {"input_shape": [null, 64, 64, 64]}, "name": "batch_normalization_1060", "inbound_nodes": [[["conv2d_1104", 0, 0, {}]]]}, {"module": "keras.layers", "class_name": "Activation", "config": {"name": "activation_1060", "trainable": false, "dtype": "float32", "activation": "relu"}, "registered_name": null, "build_config": {"input_shape": [null, 64, 64, 64]}, "name": "activation_1060", "inbound_nodes": [[["batch_normalization_1060", 0, 0, {}]]]}, {"module": "keras.layers", "class_name": "ZeroPadding2D", "config": {"name": "zero_padding2d_374", "trainable": false, "dtype": "float32", "padding": [[1, 1], [1, 1]], "data_format": "channels_last"}, "registered_name": null, "build_config": {"input_shape": [null, 64, 64, 64]}, "name": "zero_padding2d_374", "inbound_nodes": [[["activation_1060", 0, 0, {}]]]}, {"module": "keras.layers", "class_name": "Conv2D", "config": {"name": "conv2d_1105", "trainable": false, "dtype": "float32", "filters": 64, "kernel_size": [3, 3], "strides": [1, 1], "padding": "valid", "data_format": "channels_last", "dilation_rate": [1, 1], "groups": 1, "activation": "linear", "use_bias": false, "kernel_initializer": {"module": "keras.initializers", "class_name": "GlorotUniform", "config": {"seed": null}, "registered_name": null}, "bias_initializer": {"module": "keras.initializers", "class_name": "Zeros", "config": {}, "registered_name": null}, "kernel_regularizer": null, "bias_regularizer": null, "activity_regularizer": null, "kernel_constraint": null, "bias_constraint": null}, "registered_name": null, "build_config": {"input_shape": [null, 66, 66, 64]}, "name": "conv2d_1105", "inbound_nodes": [[["zero_padding2d_374", 0, 0, {}]]]}, {"module": "keras.layers", "class_name": "BatchNormalization", "config": {"name": "batch_normalization_1061", "trainable": false, "dtype": "float32", "axis": [3], "momentum": 0.99, "epsilon": 1.001e-05, "center": true, "scale": true, "beta_initializer": {"module": "keras.initializers", "class_name": "Zeros", "config": {}, "registered_name": null}, "gamma_initializer": {"module": "keras.initializers", "class_name": "Ones", "config": {}, "registered_name": null}, "moving_mean_initializer": {"module": "keras.initializers", "class_name": "Zeros", "config": {}, "registered_name": null}, "moving_variance_initializer": {"module": "keras.initializers", "class_name": "Ones", "config": {}, "registered_name": null}, "beta_regularizer": null, "gamma_regularizer": null, "beta_constraint": null, "gamma_constraint": null}, "registered_name": null, "build_config": {"input_shape": [null, 64, 64, 64]}, "name": "batch_normalization_1061", "inbound_nodes": [[["conv2d_1105", 0, 0, {}]]]}, {"module": "keras.layers", "class_name": "Activation", "config": {"name": "activation_1061", "trainable": false, "dtype": "float32", "activation": "relu"}, "registered_name": null, "build_config": {"input_shape": [null, 64, 64, 64]}, "name": "activation_1061", "inbound_nodes": [[["batch_normalization_1061", 0, 0, {}]]]}, {"module": "keras.layers", "class_name": "Conv2D", "config": {"name": "conv2d_1103", "trainable": false, "dtype": "float32", "filters": 256, "kernel_size": [1, 1], "strides": [1, 1], "padding": "valid", "data_format": "channels_last", "dilation_rate": [1, 1], "groups": 1, "activation": "linear", "use_bias": true, "kernel_initializer": {"module": "keras.initializers", "class_name": "GlorotUniform", "config": {"seed": null}, "registered_name": null}, "bias_initializer": {"module": "keras.initializers", "class_name": "Zeros", "config": {}, "registered_name": null}, "kernel_regularizer": null, "bias_regularizer": null, "activity_regularizer": null, "kernel_constraint": null, "bias_constraint": null}, "registered_name": null, "build_config": {"input_shape": [null, 64, 64, 64]}, "name": "conv2d_1103", "inbound_nodes": [[["activation_1059", 0, 0, {}]]]}, {"module": "keras.layers", "class_name": "Conv2D", "config": {"name": "conv2d_1106", "trainable": false, "dtype": "float32", "filters": 256, "kernel_size": [1, 1], "strides": [1, 1], "padding": "valid", "data_format": "channels_last", "dilation_rate": [1, 1], "groups": 1, "activation": "linear", "use_bias": true, "kernel_initializer": {"module": "keras.initializers", "class_name": "GlorotUniform", "config": {"seed": null}, "registered_name": null}, "bias_initializer": {"module": "keras.initializers", "class_name": "Zeros", "config": {}, "registered_name": null}, "kernel_regularizer": null, "bias_regularizer": null, "activity_regularizer": null, "kernel_constraint": null, "bias_constraint": null}, "registered_name": null, "build_config": {"input_shape": [null, 64, 64, 64]}, "name": "conv2d_1106", "inbound_nodes": [[["activation_1061", 0, 0, {}]]]}, {"module": "keras.layers", "class_name": "Add", "config": {"name": "add_352", "trainable": false, "dtype": "float32"}, "registered_name": null, "build_config": {"input_shape": [[null, 64, 64, 256], [null, 64, 64, 256]]}, "name": "add_352", "inbound_nodes": [[["conv2d_1103", 0, 0, {}], ["conv2d_1106", 0, 0, {}]]]}, {"module": "keras.layers", "class_name": "BatchNormalization", "config": {"name": "batch_normalization_1062", "trainable": false, "dtype": "float32", "axis": [3], "momentum": 0.99, "epsilon": 1.001e-05, "center": true, "scale": true, "beta_initializer": {"module": "keras.initializers", "class_name": "Zeros", "config": {}, "registered_name": null}, "gamma_initializer": {"module": "keras.initializers", "class_name": "Ones", "config": {}, "registered_name": null}, "moving_mean_initializer": {"module": "keras.initializers", "class_name": "Zeros", "config": {}, "registered_name": null}, "moving_variance_initializer": {"module": "keras.initializers", "class_name": "Ones", "config": {}, "registered_name": null}, "beta_regularizer": null, "gamma_regularizer": null, "beta_constraint": null, "gamma_constraint": null}, "registered_name": null, "build_config": {"input_shape": [null, 64, 64, 256]}, "name": "batch_normalization_1062", "inbound_nodes": [[["add_352", 0, 0, {}]]]}, {"module": "keras.layers", "class_name": "Activation", "config": {"name": "activation_1062", "trainable": false, "dtype": "float32", "activation": "relu"}, "registered_name": null, "build_config": {"input_shape": [null, 64, 64, 256]}, "name": "activation_1062", "inbound_nodes": [[["batch_normalization_1062", 0, 0, {}]]]}, {"module": "keras.layers", "class_name": "Conv2D", "config": {"name": "conv2d_1107", "trainable": false, "dtype": "float32", "filters": 64, "kernel_size": [1, 1], "strides": [1, 1], "padding": "valid", "data_format": "channels_last", "dilation_rate": [1, 1], "groups": 1, "activation": "linear", "use_bias": false, "kernel_initializer": {"module": "keras.initializers", "class_name": "GlorotUniform", "config": {"seed": null}, "registered_name": null}, "bias_initializer": {"module": "keras.initializers", "class_name": "Zeros", "config": {}, "registered_name": null}, "kernel_regularizer": null, "bias_regularizer": null, "activity_regularizer": null, "kernel_constraint": null, "bias_constraint": null}, "registered_name": null, "build_config": {"input_shape": [null, 64, 64, 256]}, "name": "conv2d_1107", "inbound_nodes": [[["activation_1062", 0, 0, {}]]]}, {"module": "keras.layers", "class_name": "BatchNormalization", "config": {"name": "batch_normalization_1063", "trainable": false, "dtype": "float32", "axis": [3], "momentum": 0.99, "epsilon": 1.001e-05, "center": true, "scale": true, "beta_initializer": {"module": "keras.initializers", "class_name": "Zeros", "config": {}, "registered_name": null}, "gamma_initializer": {"module": "keras.initializers", "class_name": "Ones", "config": {}, "registered_name": null}, "moving_mean_initializer": {"module": "keras.initializers", "class_name": "Zeros", "config": {}, "registered_name": null}, "moving_variance_initializer": {"module": "keras.initializers", "class_name": "Ones", "config": {}, "registered_name": null}, "beta_regularizer": null, "gamma_regularizer": null, "beta_constraint": null, "gamma_constraint": null}, "registered_name": null, "build_config": {"input_shape": [null, 64, 64, 64]}, "name": "batch_normalization_1063", "inbound_nodes": [[["conv2d_1107", 0, 0, {}]]]}, {"module": "keras.layers", "class_name": "Activation", "config": {"name": "activation_1063", "trainable": false, "dtype": "float32", "activation": "relu"}, "registered_name": null, "build_config": {"input_shape": [null, 64, 64, 64]}, "name": "activation_1063", "inbound_nodes": [[["batch_normalization_1063", 0, 0, {}]]]}, {"module": "keras.layers", "class_name": "ZeroPadding2D", "config": {"name": "zero_padding2d_375", "trainable": false, "dtype": "float32", "padding": [[1, 1], [1, 1]], "data_format": "channels_last"}, "registered_name": null, "build_config": {"input_shape": [null, 64, 64, 64]}, "name": "zero_padding2d_375", "inbound_nodes": [[["activation_1063", 0, 0, {}]]]}, {"module": "keras.layers", "class_name": "Conv2D", "config": {"name": "conv2d_1108", "trainable": false, "dtype": "float32", "filters": 64, "kernel_size": [3, 3], "strides": [1, 1], "padding": "valid", "data_format": "channels_last", "dilation_rate": [1, 1], "groups": 1, "activation": "linear", "use_bias": false, "kernel_initializer": {"module": "keras.initializers", "class_name": "GlorotUniform", "config": {"seed": null}, "registered_name": null}, "bias_initializer": {"module": "keras.initializers", "class_name": "Zeros", "config": {}, "registered_name": null}, "kernel_regularizer": null, "bias_regularizer": null, "activity_regularizer": null, "kernel_constraint": null, "bias_constraint": null}, "registered_name": null, "build_config": {"input_shape": [null, 66, 66, 64]}, "name": "conv2d_1108", "inbound_nodes": [[["zero_padding2d_375", 0, 0, {}]]]}, {"module": "keras.layers", "class_name": "BatchNormalization", "config": {"name": "batch_normalization_1064", "trainable": false, "dtype": "float32", "axis": [3], "momentum": 0.99, "epsilon": 1.001e-05, "center": true, "scale": true, "beta_initializer": {"module": "keras.initializers", "class_name": "Zeros", "config": {}, "registered_name": null}, "gamma_initializer": {"module": "keras.initializers", "class_name": "Ones", "config": {}, "registered_name": null}, "moving_mean_initializer": {"module": "keras.initializers", "class_name": "Zeros", "config": {}, "registered_name": null}, "moving_variance_initializer": {"module": "keras.initializers", "class_name": "Ones", "config": {}, "registered_name": null}, "beta_regularizer": null, "gamma_regularizer": null, "beta_constraint": null, "gamma_constraint": null}, "registered_name": null, "build_config": {"input_shape": [null, 64, 64, 64]}, "name": "batch_normalization_1064", "inbound_nodes": [[["conv2d_1108", 0, 0, {}]]]}, {"module": "keras.layers", "class_name": "Activation", "config": {"name": "activation_1064", "trainable": false, "dtype": "float32", "activation": "relu"}, "registered_name": null, "build_config": {"input_shape": [null, 64, 64, 64]}, "name": "activation_1064", "inbound_nodes": [[["batch_normalization_1064", 0, 0, {}]]]}, {"module": "keras.layers", "class_name": "Conv2D", "config": {"name": "conv2d_1109", "trainable": false, "dtype": "float32", "filters": 256, "kernel_size": [1, 1], "strides": [1, 1], "padding": "valid", "data_format": "channels_last", "dilation_rate": [1, 1], "groups": 1, "activation": "linear", "use_bias": true, "kernel_initializer": {"module": "keras.initializers", "class_name": "GlorotUniform", "config": {"seed": null}, "registered_name": null}, "bias_initializer": {"module": "keras.initializers", "class_name": "Zeros", "config": {}, "registered_name": null}, "kernel_regularizer": null, "bias_regularizer": null, "activity_regularizer": null, "kernel_constraint": null, "bias_constraint": null}, "registered_name": null, "build_config": {"input_shape": [null, 64, 64, 64]}, "name": "conv2d_1109", "inbound_nodes": [[["activation_1064", 0, 0, {}]]]}, {"module": "keras.layers", "class_name": "Add", "config": {"name": "add_353", "trainable": false, "dtype": "float32"}, "registered_name": null, "build_config": {"input_shape": [[null, 64, 64, 256], [null, 64, 64, 256]]}, "name": "add_353", "inbound_nodes": [[["add_352", 0, 0, {}], ["conv2d_1109", 0, 0, {}]]]}, {"module": "keras.layers", "class_name": "BatchNormalization", "config": {"name": "batch_normalization_1065", "trainable": false, "dtype": "float32", "axis": [3], "momentum": 0.99, "epsilon": 1.001e-05, "center": true, "scale": true, "beta_initializer": {"module": "keras.initializers", "class_name": "Zeros", "config": {}, "registered_name": null}, "gamma_initializer": {"module": "keras.initializers", "class_name": "Ones", "config": {}, "registered_name": null}, "moving_mean_initializer": {"module": "keras.initializers", "class_name": "Zeros", "config": {}, "registered_name": null}, "moving_variance_initializer": {"module": "keras.initializers", "class_name": "Ones", "config": {}, "registered_name": null}, "beta_regularizer": null, "gamma_regularizer": null, "beta_constraint": null, "gamma_constraint": null}, "registered_name": null, "build_config": {"input_shape": [null, 64, 64, 256]}, "name": "batch_normalization_1065", "inbound_nodes": [[["add_353", 0, 0, {}]]]}, {"module": "keras.layers", "class_name": "Activation", "config": {"name": "activation_1065", "trainable": false, "dtype": "float32", "activation": "relu"}, "registered_name": null, "build_config": {"input_shape": [null, 64, 64, 256]}, "name": "activation_1065", "inbound_nodes": [[["batch_normalization_1065", 0, 0, {}]]]}, {"module": "keras.layers", "class_name": "Conv2D", "config": {"name": "conv2d_1110", "trainable": false, "dtype": "float32", "filters": 64, "kernel_size": [1, 1], "strides": [1, 1], "padding": "valid", "data_format": "channels_last", "dilation_rate": [1, 1], "groups": 1, "activation": "linear", "use_bias": false, "kernel_initializer": {"module": "keras.initializers", "class_name": "GlorotUniform", "config": {"seed": null}, "registered_name": null}, "bias_initializer": {"module": "keras.initializers", "class_name": "Zeros", "config": {}, "registered_name": null}, "kernel_regularizer": null, "bias_regularizer": null, "activity_regularizer": null, "kernel_constraint": null, "bias_constraint": null}, "registered_name": null, "build_config": {"input_shape": [null, 64, 64, 256]}, "name": "conv2d_1110", "inbound_nodes": [[["activation_1065", 0, 0, {}]]]}, {"module": "keras.layers", "class_name": "BatchNormalization", "config": {"name": "batch_normalization_1066", "trainable": false, "dtype": "float32", "axis": [3], "momentum": 0.99, "epsilon": 1.001e-05, "center": true, "scale": true, "beta_initializer": {"module": "keras.initializers", "class_name": "Zeros", "config": {}, "registered_name": null}, "gamma_initializer": {"module": "keras.initializers", "class_name": "Ones", "config": {}, "registered_name": null}, "moving_mean_initializer": {"module": "keras.initializers", "class_name": "Zeros", "config": {}, "registered_name": null}, "moving_variance_initializer": {"module": "keras.initializers", "class_name": "Ones", "config": {}, "registered_name": null}, "beta_regularizer": null, "gamma_regularizer": null, "beta_constraint": null, "gamma_constraint": null}, "registered_name": null, "build_config": {"input_shape": [null, 64, 64, 64]}, "name": "batch_normalization_1066", "inbound_nodes": [[["conv2d_1110", 0, 0, {}]]]}, {"module": "keras.layers", "class_name": "Activation", "config": {"name": "activation_1066", "trainable": false, "dtype": "float32", "activation": "relu"}, "registered_name": null, "build_config": {"input_shape": [null, 64, 64, 64]}, "name": "activation_1066", "inbound_nodes": [[["batch_normalization_1066", 0, 0, {}]]]}, {"module": "keras.layers", "class_name": "ZeroPadding2D", "config": {"name": "zero_padding2d_376", "trainable": false, "dtype": "float32", "padding": [[1, 1], [1, 1]], "data_format": "channels_last"}, "registered_name": null, "build_config": {"input_shape": [null, 64, 64, 64]}, "name": "zero_padding2d_376", "inbound_nodes": [[["activation_1066", 0, 0, {}]]]}, {"module": "keras.layers", "class_name": "Conv2D", "config": {"name": "conv2d_1111", "trainable": false, "dtype": "float32", "filters": 64, "kernel_size": [3, 3], "strides": [2, 2], "padding": "valid", "data_format": "channels_last", "dilation_rate": [1, 1], "groups": 1, "activation": "linear", "use_bias": false, "kernel_initializer": {"module": "keras.initializers", "class_name": "GlorotUniform", "config": {"seed": null}, "registered_name": null}, "bias_initializer": {"module": "keras.initializers", "class_name": "Zeros", "config": {}, "registered_name": null}, "kernel_regularizer": null, "bias_regularizer": null, "activity_regularizer": null, "kernel_constraint": null, "bias_constraint": null}, "registered_name": null, "build_config": {"input_shape": [null, 66, 66, 64]}, "name": "conv2d_1111", "inbound_nodes": [[["zero_padding2d_376", 0, 0, {}]]]}, {"module": "keras.layers", "class_name": "BatchNormalization", "config": {"name": "batch_normalization_1067", "trainable": false, "dtype": "float32", "axis": [3], "momentum": 0.99, "epsilon": 1.001e-05, "center": true, "scale": true, "beta_initializer": {"module": "keras.initializers", "class_name": "Zeros", "config": {}, "registered_name": null}, "gamma_initializer": {"module": "keras.initializers", "class_name": "Ones", "config": {}, "registered_name": null}, "moving_mean_initializer": {"module": "keras.initializers", "class_name": "Zeros", "config": {}, "registered_name": null}, "moving_variance_initializer": {"module": "keras.initializers", "class_name": "Ones", "config": {}, "registered_name": null}, "beta_regularizer": null, "gamma_regularizer": null, "beta_constraint": null, "gamma_constraint": null}, "registered_name": null, "build_config": {"input_shape": [null, 32, 32, 64]}, "name": "batch_normalization_1067", "inbound_nodes": [[["conv2d_1111", 0, 0, {}]]]}, {"module": "keras.layers", "class_name": "Activation", "config": {"name": "activation_1067", "trainable": false, "dtype": "float32", "activation": "relu"}, "registered_name": null, "build_config": {"input_shape": [null, 32, 32, 64]}, "name": "activation_1067", "inbound_nodes": [[["batch_normalization_1067", 0, 0, {}]]]}, {"module": "keras.layers", "class_name": "MaxPooling2D", "config": {"name": "max_pooling2d_38", "trainable": false, "dtype": "float32", "pool_size": [1, 1], "padding": "valid", "strides": [2, 2], "data_format": "channels_last"}, "registered_name": null, "build_config": {"input_shape": [null, 64, 64, 256]}, "name": "max_pooling2d_38", "inbound_nodes": [[["add_353", 0, 0, {}]]]}, {"module": "keras.layers", "class_name": "Conv2D", "config": {"name": "conv2d_1112", "trainable": false, "dtype": "float32", "filters": 256, "kernel_size": [1, 1], "strides": [1, 1], "padding": "valid", "data_format": "channels_last", "dilation_rate": [1, 1], "groups": 1, "activation": "linear", "use_bias": true, "kernel_initializer": {"module": "keras.initializers", "class_name": "GlorotUniform", "config": {"seed": null}, "registered_name": null}, "bias_initializer": {"module": "keras.initializers", "class_name": "Zeros", "config": {}, "registered_name": null}, "kernel_regularizer": null, "bias_regularizer": null, "activity_regularizer": null, "kernel_constraint": null, "bias_constraint": null}, "registered_name": null, "build_config": {"input_shape": [null, 32, 32, 64]}, "name": "conv2d_1112", "inbound_nodes": [[["activation_1067", 0, 0, {}]]]}, {"module": "keras.layers", "class_name": "Add", "config": {"name": "add_354", "trainable": false, "dtype": "float32"}, "registered_name": null, "build_config": {"input_shape": [[null, 32, 32, 256], [null, 32, 32, 256]]}, "name": "add_354", "inbound_nodes": [[["max_pooling2d_38", 0, 0, {}], ["conv2d_1112", 0, 0, {}]]]}, {"module": "keras.layers", "class_name": "BatchNormalization", "config": {"name": "batch_normalization_1068", "trainable": false, "dtype": "float32", "axis": [3], "momentum": 0.99, "epsilon": 1.001e-05, "center": true, "scale": true, "beta_initializer": {"module": "keras.initializers", "class_name": "Zeros", "config": {}, "registered_name": null}, "gamma_initializer": {"module": "keras.initializers", "class_name": "Ones", "config": {}, "registered_name": null}, "moving_mean_initializer": {"module": "keras.initializers", "class_name": "Zeros", "config": {}, "registered_name": null}, "moving_variance_initializer": {"module": "keras.initializers", "class_name": "Ones", "config": {}, "registered_name": null}, "beta_regularizer": null, "gamma_regularizer": null, "beta_constraint": null, "gamma_constraint": null}, "registered_name": null, "build_config": {"input_shape": [null, 32, 32, 256]}, "name": "batch_normalization_1068", "inbound_nodes": [[["add_354", 0, 0, {}]]]}, {"module": "keras.layers", "class_name": "Activation", "config": {"name": "activation_1068", "trainable": false, "dtype": "float32", "activation": "relu"}, "registered_name": null, "build_config": {"input_shape": [null, 32, 32, 256]}, "name": "activation_1068", "inbound_nodes": [[["batch_normalization_1068", 0, 0, {}]]]}, {"module": "keras.layers", "class_name": "Conv2D", "config": {"name": "conv2d_1114", "trainable": false, "dtype": "float32", "filters": 128, "kernel_size": [1, 1], "strides": [1, 1], "padding": "valid", "data_format": "channels_last", "dilation_rate": [1, 1], "groups": 1, "activation": "linear", "use_bias": false, "kernel_initializer": {"module": "keras.initializers", "class_name": "GlorotUniform", "config": {"seed": null}, "registered_name": null}, "bias_initializer": {"module": "keras.initializers", "class_name": "Zeros", "config": {}, "registered_name": null}, "kernel_regularizer": null, "bias_regularizer": null, "activity_regularizer": null, "kernel_constraint": null, "bias_constraint": null}, "registered_name": null, "build_config": {"input_shape": [null, 32, 32, 256]}, "name": "conv2d_1114", "inbound_nodes": [[["activation_1068", 0, 0, {}]]]}, {"module": "keras.layers", "class_name": "BatchNormalization", "config": {"name": "batch_normalization_1069", "trainable": false, "dtype": "float32", "axis": [3], "momentum": 0.99, "epsilon": 1.001e-05, "center": true, "scale": true, "beta_initializer": {"module": "keras.initializers", "class_name": "Zeros", "config": {}, "registered_name": null}, "gamma_initializer": {"module": "keras.initializers", "class_name": "Ones", "config": {}, "registered_name": null}, "moving_mean_initializer": {"module": "keras.initializers", "class_name": "Zeros", "config": {}, "registered_name": null}, "moving_variance_initializer": {"module": "keras.initializers", "class_name": "Ones", "config": {}, "registered_name": null}, "beta_regularizer": null, "gamma_regularizer": null, "beta_constraint": null, "gamma_constraint": null}, "registered_name": null, "build_config": {"input_shape": [null, 32, 32, 128]}, "name": "batch_normalization_1069", "inbound_nodes": [[["conv2d_1114", 0, 0, {}]]]}, {"module": "keras.layers", "class_name": "Activation", "config": {"name": "activation_1069", "trainable": false, "dtype": "float32", "activation": "relu"}, "registered_name": null, "build_config": {"input_shape": [null, 32, 32, 128]}, "name": "activation_1069", "inbound_nodes": [[["batch_normalization_1069", 0, 0, {}]]]}, {"module": "keras.layers", "class_name": "ZeroPadding2D", "config": {"name": "zero_padding2d_377", "trainable": false, "dtype": "float32", "padding": [[1, 1], [1, 1]], "data_format": "channels_last"}, "registered_name": null, "build_config": {"input_shape": [null, 32, 32, 128]}, "name": "zero_padding2d_377", "inbound_nodes": [[["activation_1069", 0, 0, {}]]]}, {"module": "keras.layers", "class_name": "Conv2D", "config": {"name": "conv2d_1115", "trainable": false, "dtype": "float32", "filters": 128, "kernel_size": [3, 3], "strides": [1, 1], "padding": "valid", "data_format": "channels_last", "dilation_rate": [1, 1], "groups": 1, "activation": "linear", "use_bias": false, "kernel_initializer": {"module": "keras.initializers", "class_name": "GlorotUniform", "config": {"seed": null}, "registered_name": null}, "bias_initializer": {"module": "keras.initializers", "class_name": "Zeros", "config": {}, "registered_name": null}, "kernel_regularizer": null, "bias_regularizer": null, "activity_regularizer": null, "kernel_constraint": null, "bias_constraint": null}, "registered_name": null, "build_config": {"input_shape": [null, 34, 34, 128]}, "name": "conv2d_1115", "inbound_nodes": [[["zero_padding2d_377", 0, 0, {}]]]}, {"module": "keras.layers", "class_name": "BatchNormalization", "config": {"name": "batch_normalization_1070", "trainable": false, "dtype": "float32", "axis": [3], "momentum": 0.99, "epsilon": 1.001e-05, "center": true, "scale": true, "beta_initializer": {"module": "keras.initializers", "class_name": "Zeros", "config": {}, "registered_name": null}, "gamma_initializer": {"module": "keras.initializers", "class_name": "Ones", "config": {}, "registered_name": null}, "moving_mean_initializer": {"module": "keras.initializers", "class_name": "Zeros", "config": {}, "registered_name": null}, "moving_variance_initializer": {"module": "keras.initializers", "class_name": "Ones", "config": {}, "registered_name": null}, "beta_regularizer": null, "gamma_regularizer": null, "beta_constraint": null, "gamma_constraint": null}, "registered_name": null, "build_config": {"input_shape": [null, 32, 32, 128]}, "name": "batch_normalization_1070", "inbound_nodes": [[["conv2d_1115", 0, 0, {}]]]}, {"module": "keras.layers", "class_name": "Activation", "config": {"name": "activation_1070", "trainable": false, "dtype": "float32", "activation": "relu"}, "registered_name": null, "build_config": {"input_shape": [null, 32, 32, 128]}, "name": "activation_1070", "inbound_nodes": [[["batch_normalization_1070", 0, 0, {}]]]}, {"module": "keras.layers", "class_name": "Conv2D", "config": {"name": "conv2d_1113", "trainable": false, "dtype": "float32", "filters": 512, "kernel_size": [1, 1], "strides": [1, 1], "padding": "valid", "data_format": "channels_last", "dilation_rate": [1, 1], "groups": 1, "activation": "linear", "use_bias": true, "kernel_initializer": {"module": "keras.initializers", "class_name": "GlorotUniform", "config": {"seed": null}, "registered_name": null}, "bias_initializer": {"module": "keras.initializers", "class_name": "Zeros", "config": {}, "registered_name": null}, "kernel_regularizer": null, "bias_regularizer": null, "activity_regularizer": null, "kernel_constraint": null, "bias_constraint": null}, "registered_name": null, "build_config": {"input_shape": [null, 32, 32, 256]}, "name": "conv2d_1113", "inbound_nodes": [[["activation_1068", 0, 0, {}]]]}, {"module": "keras.layers", "class_name": "Conv2D", "config": {"name": "conv2d_1116", "trainable": false, "dtype": "float32", "filters": 512, "kernel_size": [1, 1], "strides": [1, 1], "padding": "valid", "data_format": "channels_last", "dilation_rate": [1, 1], "groups": 1, "activation": "linear", "use_bias": true, "kernel_initializer": {"module": "keras.initializers", "class_name": "GlorotUniform", "config": {"seed": null}, "registered_name": null}, "bias_initializer": {"module": "keras.initializers", "class_name": "Zeros", "config": {}, "registered_name": null}, "kernel_regularizer": null, "bias_regularizer": null, "activity_regularizer": null, "kernel_constraint": null, "bias_constraint": null}, "registered_name": null, "build_config": {"input_shape": [null, 32, 32, 128]}, "name": "conv2d_1116", "inbound_nodes": [[["activation_1070", 0, 0, {}]]]}, {"module": "keras.layers", "class_name": "Add", "config": {"name": "add_355", "trainable": false, "dtype": "float32"}, "registered_name": null, "build_config": {"input_shape": [[null, 32, 32, 512], [null, 32, 32, 512]]}, "name": "add_355", "inbound_nodes": [[["conv2d_1113", 0, 0, {}], ["conv2d_1116", 0, 0, {}]]]}, {"module": "keras.layers", "class_name": "BatchNormalization", "config": {"name": "batch_normalization_1071", "trainable": false, "dtype": "float32", "axis": [3], "momentum": 0.99, "epsilon": 1.001e-05, "center": true, "scale": true, "beta_initializer": {"module": "keras.initializers", "class_name": "Zeros", "config": {}, "registered_name": null}, "gamma_initializer": {"module": "keras.initializers", "class_name": "Ones", "config": {}, "registered_name": null}, "moving_mean_initializer": {"module": "keras.initializers", "class_name": "Zeros", "config": {}, "registered_name": null}, "moving_variance_initializer": {"module": "keras.initializers", "class_name": "Ones", "config": {}, "registered_name": null}, "beta_regularizer": null, "gamma_regularizer": null, "beta_constraint": null, "gamma_constraint": null}, "registered_name": null, "build_config": {"input_shape": [null, 32, 32, 512]}, "name": "batch_normalization_1071", "inbound_nodes": [[["add_355", 0, 0, {}]]]}, {"module": "keras.layers", "class_name": "Activation", "config": {"name": "activation_1071", "trainable": false, "dtype": "float32", "activation": "relu"}, "registered_name": null, "build_config": {"input_shape": [null, 32, 32, 512]}, "name": "activation_1071", "inbound_nodes": [[["batch_normalization_1071", 0, 0, {}]]]}, {"module": "keras.layers", "class_name": "Conv2D", "config": {"name": "conv2d_1117", "trainable": false, "dtype": "float32", "filters": 128, "kernel_size": [1, 1], "strides": [1, 1], "padding": "valid", "data_format": "channels_last", "dilation_rate": [1, 1], "groups": 1, "activation": "linear", "use_bias": false, "kernel_initializer": {"module": "keras.initializers", "class_name": "GlorotUniform", "config": {"seed": null}, "registered_name": null}, "bias_initializer": {"module": "keras.initializers", "class_name": "Zeros", "config": {}, "registered_name": null}, "kernel_regularizer": null, "bias_regularizer": null, "activity_regularizer": null, "kernel_constraint": null, "bias_constraint": null}, "registered_name": null, "build_config": {"input_shape": [null, 32, 32, 512]}, "name": "conv2d_1117", "inbound_nodes": [[["activation_1071", 0, 0, {}]]]}, {"module": "keras.layers", "class_name": "BatchNormalization", "config": {"name": "batch_normalization_1072", "trainable": false, "dtype": "float32", "axis": [3], "momentum": 0.99, "epsilon": 1.001e-05, "center": true, "scale": true, "beta_initializer": {"module": "keras.initializers", "class_name": "Zeros", "config": {}, "registered_name": null}, "gamma_initializer": {"module": "keras.initializers", "class_name": "Ones", "config": {}, "registered_name": null}, "moving_mean_initializer": {"module": "keras.initializers", "class_name": "Zeros", "config": {}, "registered_name": null}, "moving_variance_initializer": {"module": "keras.initializers", "class_name": "Ones", "config": {}, "registered_name": null}, "beta_regularizer": null, "gamma_regularizer": null, "beta_constraint": null, "gamma_constraint": null}, "registered_name": null, "build_config": {"input_shape": [null, 32, 32, 128]}, "name": "batch_normalization_1072", "inbound_nodes": [[["conv2d_1117", 0, 0, {}]]]}, {"module": "keras.layers", "class_name": "Activation", "config": {"name": "activation_1072", "trainable": false, "dtype": "float32", "activation": "relu"}, "registered_name": null, "build_config": {"input_shape": [null, 32, 32, 128]}, "name": "activation_1072", "inbound_nodes": [[["batch_normalization_1072", 0, 0, {}]]]}, {"module": "keras.layers", "class_name": "ZeroPadding2D", "config": {"name": "zero_padding2d_378", "trainable": false, "dtype": "float32", "padding": [[1, 1], [1, 1]], "data_format": "channels_last"}, "registered_name": null, "build_config": {"input_shape": [null, 32, 32, 128]}, "name": "zero_padding2d_378", "inbound_nodes": [[["activation_1072", 0, 0, {}]]]}, {"module": "keras.layers", "class_name": "Conv2D", "config": {"name": "conv2d_1118", "trainable": false, "dtype": "float32", "filters": 128, "kernel_size": [3, 3], "strides": [1, 1], "padding": "valid", "data_format": "channels_last", "dilation_rate": [1, 1], "groups": 1, "activation": "linear", "use_bias": false, "kernel_initializer": {"module": "keras.initializers", "class_name": "GlorotUniform", "config": {"seed": null}, "registered_name": null}, "bias_initializer": {"module": "keras.initializers", "class_name": "Zeros", "config": {}, "registered_name": null}, "kernel_regularizer": null, "bias_regularizer": null, "activity_regularizer": null, "kernel_constraint": null, "bias_constraint": null}, "registered_name": null, "build_config": {"input_shape": [null, 34, 34, 128]}, "name": "conv2d_1118", "inbound_nodes": [[["zero_padding2d_378", 0, 0, {}]]]}, {"module": "keras.layers", "class_name": "BatchNormalization", "config": {"name": "batch_normalization_1073", "trainable": false, "dtype": "float32", "axis": [3], "momentum": 0.99, "epsilon": 1.001e-05, "center": true, "scale": true, "beta_initializer": {"module": "keras.initializers", "class_name": "Zeros", "config": {}, "registered_name": null}, "gamma_initializer": {"module": "keras.initializers", "class_name": "Ones", "config": {}, "registered_name": null}, "moving_mean_initializer": {"module": "keras.initializers", "class_name": "Zeros", "config": {}, "registered_name": null}, "moving_variance_initializer": {"module": "keras.initializers", "class_name": "Ones", "config": {}, "registered_name": null}, "beta_regularizer": null, "gamma_regularizer": null, "beta_constraint": null, "gamma_constraint": null}, "registered_name": null, "build_config": {"input_shape": [null, 32, 32, 128]}, "name": "batch_normalization_1073", "inbound_nodes": [[["conv2d_1118", 0, 0, {}]]]}, {"module": "keras.layers", "class_name": "Activation", "config": {"name": "activation_1073", "trainable": false, "dtype": "float32", "activation": "relu"}, "registered_name": null, "build_config": {"input_shape": [null, 32, 32, 128]}, "name": "activation_1073", "inbound_nodes": [[["batch_normalization_1073", 0, 0, {}]]]}, {"module": "keras.layers", "class_name": "Conv2D", "config": {"name": "conv2d_1119", "trainable": false, "dtype": "float32", "filters": 512, "kernel_size": [1, 1], "strides": [1, 1], "padding": "valid", "data_format": "channels_last", "dilation_rate": [1, 1], "groups": 1, "activation": "linear", "use_bias": true, "kernel_initializer": {"module": "keras.initializers", "class_name": "GlorotUniform", "config": {"seed": null}, "registered_name": null}, "bias_initializer": {"module": "keras.initializers", "class_name": "Zeros", "config": {}, "registered_name": null}, "kernel_regularizer": null, "bias_regularizer": null, "activity_regularizer": null, "kernel_constraint": null, "bias_constraint": null}, "registered_name": null, "build_config": {"input_shape": [null, 32, 32, 128]}, "name": "conv2d_1119", "inbound_nodes": [[["activation_1073", 0, 0, {}]]]}, {"module": "keras.layers", "class_name": "Add", "config": {"name": "add_356", "trainable": false, "dtype": "float32"}, "registered_name": null, "build_config": {"input_shape": [[null, 32, 32, 512], [null, 32, 32, 512]]}, "name": "add_356", "inbound_nodes": [[["add_355", 0, 0, {}], ["conv2d_1119", 0, 0, {}]]]}, {"module": "keras.layers", "class_name": "BatchNormalization", "config": {"name": "batch_normalization_1074", "trainable": false, "dtype": "float32", "axis": [3], "momentum": 0.99, "epsilon": 1.001e-05, "center": true, "scale": true, "beta_initializer": {"module": "keras.initializers", "class_name": "Zeros", "config": {}, "registered_name": null}, "gamma_initializer": {"module": "keras.initializers", "class_name": "Ones", "config": {}, "registered_name": null}, "moving_mean_initializer": {"module": "keras.initializers", "class_name": "Zeros", "config": {}, "registered_name": null}, "moving_variance_initializer": {"module": "keras.initializers", "class_name": "Ones", "config": {}, "registered_name": null}, "beta_regularizer": null, "gamma_regularizer": null, "beta_constraint": null, "gamma_constraint": null}, "registered_name": null, "build_config": {"input_shape": [null, 32, 32, 512]}, "name": "batch_normalization_1074", "inbound_nodes": [[["add_356", 0, 0, {}]]]}, {"module": "keras.layers", "class_name": "Activation", "config": {"name": "activation_1074", "trainable": false, "dtype": "float32", "activation": "relu"}, "registered_name": null, "build_config": {"input_shape": [null, 32, 32, 512]}, "name": "activation_1074", "inbound_nodes": [[["batch_normalization_1074", 0, 0, {}]]]}, {"module": "keras.layers", "class_name": "Conv2D", "config": {"name": "conv2d_1120", "trainable": false, "dtype": "float32", "filters": 128, "kernel_size": [1, 1], "strides": [1, 1], "padding": "valid", "data_format": "channels_last", "dilation_rate": [1, 1], "groups": 1, "activation": "linear", "use_bias": false, "kernel_initializer": {"module": "keras.initializers", "class_name": "GlorotUniform", "config": {"seed": null}, "registered_name": null}, "bias_initializer": {"module": "keras.initializers", "class_name": "Zeros", "config": {}, "registered_name": null}, "kernel_regularizer": null, "bias_regularizer": null, "activity_regularizer": null, "kernel_constraint": null, "bias_constraint": null}, "registered_name": null, "build_config": {"input_shape": [null, 32, 32, 512]}, "name": "conv2d_1120", "inbound_nodes": [[["activation_1074", 0, 0, {}]]]}, {"module": "keras.layers", "class_name": "BatchNormalization", "config": {"name": "batch_normalization_1075", "trainable": false, "dtype": "float32", "axis": [3], "momentum": 0.99, "epsilon": 1.001e-05, "center": true, "scale": true, "beta_initializer": {"module": "keras.initializers", "class_name": "Zeros", "config": {}, "registered_name": null}, "gamma_initializer": {"module": "keras.initializers", "class_name": "Ones", "config": {}, "registered_name": null}, "moving_mean_initializer": {"module": "keras.initializers", "class_name": "Zeros", "config": {}, "registered_name": null}, "moving_variance_initializer": {"module": "keras.initializers", "class_name": "Ones", "config": {}, "registered_name": null}, "beta_regularizer": null, "gamma_regularizer": null, "beta_constraint": null, "gamma_constraint": null}, "registered_name": null, "build_config": {"input_shape": [null, 32, 32, 128]}, "name": "batch_normalization_1075", "inbound_nodes": [[["conv2d_1120", 0, 0, {}]]]}, {"module": "keras.layers", "class_name": "Activation", "config": {"name": "activation_1075", "trainable": false, "dtype": "float32", "activation": "relu"}, "registered_name": null, "build_config": {"input_shape": [null, 32, 32, 128]}, "name": "activation_1075", "inbound_nodes": [[["batch_normalization_1075", 0, 0, {}]]]}, {"module": "keras.layers", "class_name": "ZeroPadding2D", "config": {"name": "zero_padding2d_379", "trainable": false, "dtype": "float32", "padding": [[1, 1], [1, 1]], "data_format": "channels_last"}, "registered_name": null, "build_config": {"input_shape": [null, 32, 32, 128]}, "name": "zero_padding2d_379", "inbound_nodes": [[["activation_1075", 0, 0, {}]]]}, {"module": "keras.layers", "class_name": "Conv2D", "config": {"name": "conv2d_1121", "trainable": false, "dtype": "float32", "filters": 128, "kernel_size": [3, 3], "strides": [1, 1], "padding": "valid", "data_format": "channels_last", "dilation_rate": [1, 1], "groups": 1, "activation": "linear", "use_bias": false, "kernel_initializer": {"module": "keras.initializers", "class_name": "GlorotUniform", "config": {"seed": null}, "registered_name": null}, "bias_initializer": {"module": "keras.initializers", "class_name": "Zeros", "config": {}, "registered_name": null}, "kernel_regularizer": null, "bias_regularizer": null, "activity_regularizer": null, "kernel_constraint": null, "bias_constraint": null}, "registered_name": null, "build_config": {"input_shape": [null, 34, 34, 128]}, "name": "conv2d_1121", "inbound_nodes": [[["zero_padding2d_379", 0, 0, {}]]]}, {"module": "keras.layers", "class_name": "BatchNormalization", "config": {"name": "batch_normalization_1076", "trainable": false, "dtype": "float32", "axis": [3], "momentum": 0.99, "epsilon": 1.001e-05, "center": true, "scale": true, "beta_initializer": {"module": "keras.initializers", "class_name": "Zeros", "config": {}, "registered_name": null}, "gamma_initializer": {"module": "keras.initializers", "class_name": "Ones", "config": {}, "registered_name": null}, "moving_mean_initializer": {"module": "keras.initializers", "class_name": "Zeros", "config": {}, "registered_name": null}, "moving_variance_initializer": {"module": "keras.initializers", "class_name": "Ones", "config": {}, "registered_name": null}, "beta_regularizer": null, "gamma_regularizer": null, "beta_constraint": null, "gamma_constraint": null}, "registered_name": null, "build_config": {"input_shape": [null, 32, 32, 128]}, "name": "batch_normalization_1076", "inbound_nodes": [[["conv2d_1121", 0, 0, {}]]]}, {"module": "keras.layers", "class_name": "Activation", "config": {"name": "activation_1076", "trainable": false, "dtype": "float32", "activation": "relu"}, "registered_name": null, "build_config": {"input_shape": [null, 32, 32, 128]}, "name": "activation_1076", "inbound_nodes": [[["batch_normalization_1076", 0, 0, {}]]]}, {"module": "keras.layers", "class_name": "Conv2D", "config": {"name": "conv2d_1122", "trainable": false, "dtype": "float32", "filters": 512, "kernel_size": [1, 1], "strides": [1, 1], "padding": "valid", "data_format": "channels_last", "dilation_rate": [1, 1], "groups": 1, "activation": "linear", "use_bias": true, "kernel_initializer": {"module": "keras.initializers", "class_name": "GlorotUniform", "config": {"seed": null}, "registered_name": null}, "bias_initializer": {"module": "keras.initializers", "class_name": "Zeros", "config": {}, "registered_name": null}, "kernel_regularizer": null, "bias_regularizer": null, "activity_regularizer": null, "kernel_constraint": null, "bias_constraint": null}, "registered_name": null, "build_config": {"input_shape": [null, 32, 32, 128]}, "name": "conv2d_1122", "inbound_nodes": [[["activation_1076", 0, 0, {}]]]}, {"module": "keras.layers", "class_name": "Add", "config": {"name": "add_357", "trainable": false, "dtype": "float32"}, "registered_name": null, "build_config": {"input_shape": [[null, 32, 32, 512], [null, 32, 32, 512]]}, "name": "add_357", "inbound_nodes": [[["add_356", 0, 0, {}], ["conv2d_1122", 0, 0, {}]]]}, {"module": "keras.layers", "class_name": "BatchNormalization", "config": {"name": "batch_normalization_1077", "trainable": false, "dtype": "float32", "axis": [3], "momentum": 0.99, "epsilon": 1.001e-05, "center": true, "scale": true, "beta_initializer": {"module": "keras.initializers", "class_name": "Zeros", "config": {}, "registered_name": null}, "gamma_initializer": {"module": "keras.initializers", "class_name": "Ones", "config": {}, "registered_name": null}, "moving_mean_initializer": {"module": "keras.initializers", "class_name": "Zeros", "config": {}, "registered_name": null}, "moving_variance_initializer": {"module": "keras.initializers", "class_name": "Ones", "config": {}, "registered_name": null}, "beta_regularizer": null, "gamma_regularizer": null, "beta_constraint": null, "gamma_constraint": null}, "registered_name": null, "build_config": {"input_shape": [null, 32, 32, 512]}, "name": "batch_normalization_1077", "inbound_nodes": [[["add_357", 0, 0, {}]]]}, {"module": "keras.layers", "class_name": "Activation", "config": {"name": "activation_1077", "trainable": false, "dtype": "float32", "activation": "relu"}, "registered_name": null, "build_config": {"input_shape": [null, 32, 32, 512]}, "name": "activation_1077", "inbound_nodes": [[["batch_normalization_1077", 0, 0, {}]]]}, {"module": "keras.layers", "class_name": "Conv2D", "config": {"name": "conv2d_1123", "trainable": false, "dtype": "float32", "filters": 128, "kernel_size": [1, 1], "strides": [1, 1], "padding": "valid", "data_format": "channels_last", "dilation_rate": [1, 1], "groups": 1, "activation": "linear", "use_bias": false, "kernel_initializer": {"module": "keras.initializers", "class_name": "GlorotUniform", "config": {"seed": null}, "registered_name": null}, "bias_initializer": {"module": "keras.initializers", "class_name": "Zeros", "config": {}, "registered_name": null}, "kernel_regularizer": null, "bias_regularizer": null, "activity_regularizer": null, "kernel_constraint": null, "bias_constraint": null}, "registered_name": null, "build_config": {"input_shape": [null, 32, 32, 512]}, "name": "conv2d_1123", "inbound_nodes": [[["activation_1077", 0, 0, {}]]]}, {"module": "keras.layers", "class_name": "BatchNormalization", "config": {"name": "batch_normalization_1078", "trainable": false, "dtype": "float32", "axis": [3], "momentum": 0.99, "epsilon": 1.001e-05, "center": true, "scale": true, "beta_initializer": {"module": "keras.initializers", "class_name": "Zeros", "config": {}, "registered_name": null}, "gamma_initializer": {"module": "keras.initializers", "class_name": "Ones", "config": {}, "registered_name": null}, "moving_mean_initializer": {"module": "keras.initializers", "class_name": "Zeros", "config": {}, "registered_name": null}, "moving_variance_initializer": {"module": "keras.initializers", "class_name": "Ones", "config": {}, "registered_name": null}, "beta_regularizer": null, "gamma_regularizer": null, "beta_constraint": null, "gamma_constraint": null}, "registered_name": null, "build_config": {"input_shape": [null, 32, 32, 128]}, "name": "batch_normalization_1078", "inbound_nodes": [[["conv2d_1123", 0, 0, {}]]]}, {"module": "keras.layers", "class_name": "Activation", "config": {"name": "activation_1078", "trainable": false, "dtype": "float32", "activation": "relu"}, "registered_name": null, "build_config": {"input_shape": [null, 32, 32, 128]}, "name": "activation_1078", "inbound_nodes": [[["batch_normalization_1078", 0, 0, {}]]]}, {"module": "keras.layers", "class_name": "ZeroPadding2D", "config": {"name": "zero_padding2d_380", "trainable": false, "dtype": "float32", "padding": [[1, 1], [1, 1]], "data_format": "channels_last"}, "registered_name": null, "build_config": {"input_shape": [null, 32, 32, 128]}, "name": "zero_padding2d_380", "inbound_nodes": [[["activation_1078", 0, 0, {}]]]}, {"module": "keras.layers", "class_name": "Conv2D", "config": {"name": "conv2d_1124", "trainable": false, "dtype": "float32", "filters": 128, "kernel_size": [3, 3], "strides": [1, 1], "padding": "valid", "data_format": "channels_last", "dilation_rate": [1, 1], "groups": 1, "activation": "linear", "use_bias": false, "kernel_initializer": {"module": "keras.initializers", "class_name": "GlorotUniform", "config": {"seed": null}, "registered_name": null}, "bias_initializer": {"module": "keras.initializers", "class_name": "Zeros", "config": {}, "registered_name": null}, "kernel_regularizer": null, "bias_regularizer": null, "activity_regularizer": null, "kernel_constraint": null, "bias_constraint": null}, "registered_name": null, "build_config": {"input_shape": [null, 34, 34, 128]}, "name": "conv2d_1124", "inbound_nodes": [[["zero_padding2d_380", 0, 0, {}]]]}, {"module": "keras.layers", "class_name": "BatchNormalization", "config": {"name": "batch_normalization_1079", "trainable": false, "dtype": "float32", "axis": [3], "momentum": 0.99, "epsilon": 1.001e-05, "center": true, "scale": true, "beta_initializer": {"module": "keras.initializers", "class_name": "Zeros", "config": {}, "registered_name": null}, "gamma_initializer": {"module": "keras.initializers", "class_name": "Ones", "config": {}, "registered_name": null}, "moving_mean_initializer": {"module": "keras.initializers", "class_name": "Zeros", "config": {}, "registered_name": null}, "moving_variance_initializer": {"module": "keras.initializers", "class_name": "Ones", "config": {}, "registered_name": null}, "beta_regularizer": null, "gamma_regularizer": null, "beta_constraint": null, "gamma_constraint": null}, "registered_name": null, "build_config": {"input_shape": [null, 32, 32, 128]}, "name": "batch_normalization_1079", "inbound_nodes": [[["conv2d_1124", 0, 0, {}]]]}, {"module": "keras.layers", "class_name": "Activation", "config": {"name": "activation_1079", "trainable": false, "dtype": "float32", "activation": "relu"}, "registered_name": null, "build_config": {"input_shape": [null, 32, 32, 128]}, "name": "activation_1079", "inbound_nodes": [[["batch_normalization_1079", 0, 0, {}]]]}, {"module": "keras.layers", "class_name": "Conv2D", "config": {"name": "conv2d_1125", "trainable": false, "dtype": "float32", "filters": 512, "kernel_size": [1, 1], "strides": [1, 1], "padding": "valid", "data_format": "channels_last", "dilation_rate": [1, 1], "groups": 1, "activation": "linear", "use_bias": true, "kernel_initializer": {"module": "keras.initializers", "class_name": "GlorotUniform", "config": {"seed": null}, "registered_name": null}, "bias_initializer": {"module": "keras.initializers", "class_name": "Zeros", "config": {}, "registered_name": null}, "kernel_regularizer": null, "bias_regularizer": null, "activity_regularizer": null, "kernel_constraint": null, "bias_constraint": null}, "registered_name": null, "build_config": {"input_shape": [null, 32, 32, 128]}, "name": "conv2d_1125", "inbound_nodes": [[["activation_1079", 0, 0, {}]]]}, {"module": "keras.layers", "class_name": "Add", "config": {"name": "add_358", "trainable": false, "dtype": "float32"}, "registered_name": null, "build_config": {"input_shape": [[null, 32, 32, 512], [null, 32, 32, 512]]}, "name": "add_358", "inbound_nodes": [[["add_357", 0, 0, {}], ["conv2d_1125", 0, 0, {}]]]}, {"module": "keras.layers", "class_name": "BatchNormalization", "config": {"name": "batch_normalization_1080", "trainable": false, "dtype": "float32", "axis": [3], "momentum": 0.99, "epsilon": 1.001e-05, "center": true, "scale": true, "beta_initializer": {"module": "keras.initializers", "class_name": "Zeros", "config": {}, "registered_name": null}, "gamma_initializer": {"module": "keras.initializers", "class_name": "Ones", "config": {}, "registered_name": null}, "moving_mean_initializer": {"module": "keras.initializers", "class_name": "Zeros", "config": {}, "registered_name": null}, "moving_variance_initializer": {"module": "keras.initializers", "class_name": "Ones", "config": {}, "registered_name": null}, "beta_regularizer": null, "gamma_regularizer": null, "beta_constraint": null, "gamma_constraint": null}, "registered_name": null, "build_config": {"input_shape": [null, 32, 32, 512]}, "name": "batch_normalization_1080", "inbound_nodes": [[["add_358", 0, 0, {}]]]}, {"module": "keras.layers", "class_name": "Activation", "config": {"name": "activation_1080", "trainable": false, "dtype": "float32", "activation": "relu"}, "registered_name": null, "build_config": {"input_shape": [null, 32, 32, 512]}, "name": "activation_1080", "inbound_nodes": [[["batch_normalization_1080", 0, 0, {}]]]}, {"module": "keras.layers", "class_name": "Conv2D", "config": {"name": "conv2d_1126", "trainable": false, "dtype": "float32", "filters": 128, "kernel_size": [1, 1], "strides": [1, 1], "padding": "valid", "data_format": "channels_last", "dilation_rate": [1, 1], "groups": 1, "activation": "linear", "use_bias": false, "kernel_initializer": {"module": "keras.initializers", "class_name": "GlorotUniform", "config": {"seed": null}, "registered_name": null}, "bias_initializer": {"module": "keras.initializers", "class_name": "Zeros", "config": {}, "registered_name": null}, "kernel_regularizer": null, "bias_regularizer": null, "activity_regularizer": null, "kernel_constraint": null, "bias_constraint": null}, "registered_name": null, "build_config": {"input_shape": [null, 32, 32, 512]}, "name": "conv2d_1126", "inbound_nodes": [[["activation_1080", 0, 0, {}]]]}, {"module": "keras.layers", "class_name": "BatchNormalization", "config": {"name": "batch_normalization_1081", "trainable": false, "dtype": "float32", "axis": [3], "momentum": 0.99, "epsilon": 1.001e-05, "center": true, "scale": true, "beta_initializer": {"module": "keras.initializers", "class_name": "Zeros", "config": {}, "registered_name": null}, "gamma_initializer": {"module": "keras.initializers", "class_name": "Ones", "config": {}, "registered_name": null}, "moving_mean_initializer": {"module": "keras.initializers", "class_name": "Zeros", "config": {}, "registered_name": null}, "moving_variance_initializer": {"module": "keras.initializers", "class_name": "Ones", "config": {}, "registered_name": null}, "beta_regularizer": null, "gamma_regularizer": null, "beta_constraint": null, "gamma_constraint": null}, "registered_name": null, "build_config": {"input_shape": [null, 32, 32, 128]}, "name": "batch_normalization_1081", "inbound_nodes": [[["conv2d_1126", 0, 0, {}]]]}, {"module": "keras.layers", "class_name": "Activation", "config": {"name": "activation_1081", "trainable": false, "dtype": "float32", "activation": "relu"}, "registered_name": null, "build_config": {"input_shape": [null, 32, 32, 128]}, "name": "activation_1081", "inbound_nodes": [[["batch_normalization_1081", 0, 0, {}]]]}, {"module": "keras.layers", "class_name": "ZeroPadding2D", "config": {"name": "zero_padding2d_381", "trainable": false, "dtype": "float32", "padding": [[1, 1], [1, 1]], "data_format": "channels_last"}, "registered_name": null, "build_config": {"input_shape": [null, 32, 32, 128]}, "name": "zero_padding2d_381", "inbound_nodes": [[["activation_1081", 0, 0, {}]]]}, {"module": "keras.layers", "class_name": "Conv2D", "config": {"name": "conv2d_1127", "trainable": false, "dtype": "float32", "filters": 128, "kernel_size": [3, 3], "strides": [1, 1], "padding": "valid", "data_format": "channels_last", "dilation_rate": [1, 1], "groups": 1, "activation": "linear", "use_bias": false, "kernel_initializer": {"module": "keras.initializers", "class_name": "GlorotUniform", "config": {"seed": null}, "registered_name": null}, "bias_initializer": {"module": "keras.initializers", "class_name": "Zeros", "config": {}, "registered_name": null}, "kernel_regularizer": null, "bias_regularizer": null, "activity_regularizer": null, "kernel_constraint": null, "bias_constraint": null}, "registered_name": null, "build_config": {"input_shape": [null, 34, 34, 128]}, "name": "conv2d_1127", "inbound_nodes": [[["zero_padding2d_381", 0, 0, {}]]]}, {"module": "keras.layers", "class_name": "BatchNormalization", "config": {"name": "batch_normalization_1082", "trainable": false, "dtype": "float32", "axis": [3], "momentum": 0.99, "epsilon": 1.001e-05, "center": true, "scale": true, "beta_initializer": {"module": "keras.initializers", "class_name": "Zeros", "config": {}, "registered_name": null}, "gamma_initializer": {"module": "keras.initializers", "class_name": "Ones", "config": {}, "registered_name": null}, "moving_mean_initializer": {"module": "keras.initializers", "class_name": "Zeros", "config": {}, "registered_name": null}, "moving_variance_initializer": {"module": "keras.initializers", "class_name": "Ones", "config": {}, "registered_name": null}, "beta_regularizer": null, "gamma_regularizer": null, "beta_constraint": null, "gamma_constraint": null}, "registered_name": null, "build_config": {"input_shape": [null, 32, 32, 128]}, "name": "batch_normalization_1082", "inbound_nodes": [[["conv2d_1127", 0, 0, {}]]]}, {"module": "keras.layers", "class_name": "Activation", "config": {"name": "activation_1082", "trainable": false, "dtype": "float32", "activation": "relu"}, "registered_name": null, "build_config": {"input_shape": [null, 32, 32, 128]}, "name": "activation_1082", "inbound_nodes": [[["batch_normalization_1082", 0, 0, {}]]]}, {"module": "keras.layers", "class_name": "Conv2D", "config": {"name": "conv2d_1128", "trainable": false, "dtype": "float32", "filters": 512, "kernel_size": [1, 1], "strides": [1, 1], "padding": "valid", "data_format": "channels_last", "dilation_rate": [1, 1], "groups": 1, "activation": "linear", "use_bias": true, "kernel_initializer": {"module": "keras.initializers", "class_name": "GlorotUniform", "config": {"seed": null}, "registered_name": null}, "bias_initializer": {"module": "keras.initializers", "class_name": "Zeros", "config": {}, "registered_name": null}, "kernel_regularizer": null, "bias_regularizer": null, "activity_regularizer": null, "kernel_constraint": null, "bias_constraint": null}, "registered_name": null, "build_config": {"input_shape": [null, 32, 32, 128]}, "name": "conv2d_1128", "inbound_nodes": [[["activation_1082", 0, 0, {}]]]}, {"module": "keras.layers", "class_name": "Add", "config": {"name": "add_359", "trainable": false, "dtype": "float32"}, "registered_name": null, "build_config": {"input_shape": [[null, 32, 32, 512], [null, 32, 32, 512]]}, "name": "add_359", "inbound_nodes": [[["add_358", 0, 0, {}], ["conv2d_1128", 0, 0, {}]]]}, {"module": "keras.layers", "class_name": "BatchNormalization", "config": {"name": "batch_normalization_1083", "trainable": false, "dtype": "float32", "axis": [3], "momentum": 0.99, "epsilon": 1.001e-05, "center": true, "scale": true, "beta_initializer": {"module": "keras.initializers", "class_name": "Zeros", "config": {}, "registered_name": null}, "gamma_initializer": {"module": "keras.initializers", "class_name": "Ones", "config": {}, "registered_name": null}, "moving_mean_initializer": {"module": "keras.initializers", "class_name": "Zeros", "config": {}, "registered_name": null}, "moving_variance_initializer": {"module": "keras.initializers", "class_name": "Ones", "config": {}, "registered_name": null}, "beta_regularizer": null, "gamma_regularizer": null, "beta_constraint": null, "gamma_constraint": null}, "registered_name": null, "build_config": {"input_shape": [null, 32, 32, 512]}, "name": "batch_normalization_1083", "inbound_nodes": [[["add_359", 0, 0, {}]]]}, {"module": "keras.layers", "class_name": "Activation", "config": {"name": "activation_1083", "trainable": false, "dtype": "float32", "activation": "relu"}, "registered_name": null, "build_config": {"input_shape": [null, 32, 32, 512]}, "name": "activation_1083", "inbound_nodes": [[["batch_normalization_1083", 0, 0, {}]]]}, {"module": "keras.layers", "class_name": "Conv2D", "config": {"name": "conv2d_1129", "trainable": false, "dtype": "float32", "filters": 128, "kernel_size": [1, 1], "strides": [1, 1], "padding": "valid", "data_format": "channels_last", "dilation_rate": [1, 1], "groups": 1, "activation": "linear", "use_bias": false, "kernel_initializer": {"module": "keras.initializers", "class_name": "GlorotUniform", "config": {"seed": null}, "registered_name": null}, "bias_initializer": {"module": "keras.initializers", "class_name": "Zeros", "config": {}, "registered_name": null}, "kernel_regularizer": null, "bias_regularizer": null, "activity_regularizer": null, "kernel_constraint": null, "bias_constraint": null}, "registered_name": null, "build_config": {"input_shape": [null, 32, 32, 512]}, "name": "conv2d_1129", "inbound_nodes": [[["activation_1083", 0, 0, {}]]]}, {"module": "keras.layers", "class_name": "BatchNormalization", "config": {"name": "batch_normalization_1084", "trainable": false, "dtype": "float32", "axis": [3], "momentum": 0.99, "epsilon": 1.001e-05, "center": true, "scale": true, "beta_initializer": {"module": "keras.initializers", "class_name": "Zeros", "config": {}, "registered_name": null}, "gamma_initializer": {"module": "keras.initializers", "class_name": "Ones", "config": {}, "registered_name": null}, "moving_mean_initializer": {"module": "keras.initializers", "class_name": "Zeros", "config": {}, "registered_name": null}, "moving_variance_initializer": {"module": "keras.initializers", "class_name": "Ones", "config": {}, "registered_name": null}, "beta_regularizer": null, "gamma_regularizer": null, "beta_constraint": null, "gamma_constraint": null}, "registered_name": null, "build_config": {"input_shape": [null, 32, 32, 128]}, "name": "batch_normalization_1084", "inbound_nodes": [[["conv2d_1129", 0, 0, {}]]]}, {"module": "keras.layers", "class_name": "Activation", "config": {"name": "activation_1084", "trainable": false, "dtype": "float32", "activation": "relu"}, "registered_name": null, "build_config": {"input_shape": [null, 32, 32, 128]}, "name": "activation_1084", "inbound_nodes": [[["batch_normalization_1084", 0, 0, {}]]]}, {"module": "keras.layers", "class_name": "ZeroPadding2D", "config": {"name": "zero_padding2d_382", "trainable": false, "dtype": "float32", "padding": [[1, 1], [1, 1]], "data_format": "channels_last"}, "registered_name": null, "build_config": {"input_shape": [null, 32, 32, 128]}, "name": "zero_padding2d_382", "inbound_nodes": [[["activation_1084", 0, 0, {}]]]}, {"module": "keras.layers", "class_name": "Conv2D", "config": {"name": "conv2d_1130", "trainable": false, "dtype": "float32", "filters": 128, "kernel_size": [3, 3], "strides": [1, 1], "padding": "valid", "data_format": "channels_last", "dilation_rate": [1, 1], "groups": 1, "activation": "linear", "use_bias": false, "kernel_initializer": {"module": "keras.initializers", "class_name": "GlorotUniform", "config": {"seed": null}, "registered_name": null}, "bias_initializer": {"module": "keras.initializers", "class_name": "Zeros", "config": {}, "registered_name": null}, "kernel_regularizer": null, "bias_regularizer": null, "activity_regularizer": null, "kernel_constraint": null, "bias_constraint": null}, "registered_name": null, "build_config": {"input_shape": [null, 34, 34, 128]}, "name": "conv2d_1130", "inbound_nodes": [[["zero_padding2d_382", 0, 0, {}]]]}, {"module": "keras.layers", "class_name": "BatchNormalization", "config": {"name": "batch_normalization_1085", "trainable": false, "dtype": "float32", "axis": [3], "momentum": 0.99, "epsilon": 1.001e-05, "center": true, "scale": true, "beta_initializer": {"module": "keras.initializers", "class_name": "Zeros", "config": {}, "registered_name": null}, "gamma_initializer": {"module": "keras.initializers", "class_name": "Ones", "config": {}, "registered_name": null}, "moving_mean_initializer": {"module": "keras.initializers", "class_name": "Zeros", "config": {}, "registered_name": null}, "moving_variance_initializer": {"module": "keras.initializers", "class_name": "Ones", "config": {}, "registered_name": null}, "beta_regularizer": null, "gamma_regularizer": null, "beta_constraint": null, "gamma_constraint": null}, "registered_name": null, "build_config": {"input_shape": [null, 32, 32, 128]}, "name": "batch_normalization_1085", "inbound_nodes": [[["conv2d_1130", 0, 0, {}]]]}, {"module": "keras.layers", "class_name": "Activation", "config": {"name": "activation_1085", "trainable": false, "dtype": "float32", "activation": "relu"}, "registered_name": null, "build_config": {"input_shape": [null, 32, 32, 128]}, "name": "activation_1085", "inbound_nodes": [[["batch_normalization_1085", 0, 0, {}]]]}, {"module": "keras.layers", "class_name": "Conv2D", "config": {"name": "conv2d_1131", "trainable": false, "dtype": "float32", "filters": 512, "kernel_size": [1, 1], "strides": [1, 1], "padding": "valid", "data_format": "channels_last", "dilation_rate": [1, 1], "groups": 1, "activation": "linear", "use_bias": true, "kernel_initializer": {"module": "keras.initializers", "class_name": "GlorotUniform", "config": {"seed": null}, "registered_name": null}, "bias_initializer": {"module": "keras.initializers", "class_name": "Zeros", "config": {}, "registered_name": null}, "kernel_regularizer": null, "bias_regularizer": null, "activity_regularizer": null, "kernel_constraint": null, "bias_constraint": null}, "registered_name": null, "build_config": {"input_shape": [null, 32, 32, 128]}, "name": "conv2d_1131", "inbound_nodes": [[["activation_1085", 0, 0, {}]]]}, {"module": "keras.layers", "class_name": "Add", "config": {"name": "add_360", "trainable": false, "dtype": "float32"}, "registered_name": null, "build_config": {"input_shape": [[null, 32, 32, 512], [null, 32, 32, 512]]}, "name": "add_360", "inbound_nodes": [[["add_359", 0, 0, {}], ["conv2d_1131", 0, 0, {}]]]}, {"module": "keras.layers", "class_name": "BatchNormalization", "config": {"name": "batch_normalization_1086", "trainable": false, "dtype": "float32", "axis": [3], "momentum": 0.99, "epsilon": 1.001e-05, "center": true, "scale": true, "beta_initializer": {"module": "keras.initializers", "class_name": "Zeros", "config": {}, "registered_name": null}, "gamma_initializer": {"module": "keras.initializers", "class_name": "Ones", "config": {}, "registered_name": null}, "moving_mean_initializer": {"module": "keras.initializers", "class_name": "Zeros", "config": {}, "registered_name": null}, "moving_variance_initializer": {"module": "keras.initializers", "class_name": "Ones", "config": {}, "registered_name": null}, "beta_regularizer": null, "gamma_regularizer": null, "beta_constraint": null, "gamma_constraint": null}, "registered_name": null, "build_config": {"input_shape": [null, 32, 32, 512]}, "name": "batch_normalization_1086", "inbound_nodes": [[["add_360", 0, 0, {}]]]}, {"module": "keras.layers", "class_name": "Activation", "config": {"name": "activation_1086", "trainable": false, "dtype": "float32", "activation": "relu"}, "registered_name": null, "build_config": {"input_shape": [null, 32, 32, 512]}, "name": "activation_1086", "inbound_nodes": [[["batch_normalization_1086", 0, 0, {}]]]}, {"module": "keras.layers", "class_name": "Conv2D", "config": {"name": "conv2d_1132", "trainable": false, "dtype": "float32", "filters": 128, "kernel_size": [1, 1], "strides": [1, 1], "padding": "valid", "data_format": "channels_last", "dilation_rate": [1, 1], "groups": 1, "activation": "linear", "use_bias": false, "kernel_initializer": {"module": "keras.initializers", "class_name": "GlorotUniform", "config": {"seed": null}, "registered_name": null}, "bias_initializer": {"module": "keras.initializers", "class_name": "Zeros", "config": {}, "registered_name": null}, "kernel_regularizer": null, "bias_regularizer": null, "activity_regularizer": null, "kernel_constraint": null, "bias_constraint": null}, "registered_name": null, "build_config": {"input_shape": [null, 32, 32, 512]}, "name": "conv2d_1132", "inbound_nodes": [[["activation_1086", 0, 0, {}]]]}, {"module": "keras.layers", "class_name": "BatchNormalization", "config": {"name": "batch_normalization_1087", "trainable": false, "dtype": "float32", "axis": [3], "momentum": 0.99, "epsilon": 1.001e-05, "center": true, "scale": true, "beta_initializer": {"module": "keras.initializers", "class_name": "Zeros", "config": {}, "registered_name": null}, "gamma_initializer": {"module": "keras.initializers", "class_name": "Ones", "config": {}, "registered_name": null}, "moving_mean_initializer": {"module": "keras.initializers", "class_name": "Zeros", "config": {}, "registered_name": null}, "moving_variance_initializer": {"module": "keras.initializers", "class_name": "Ones", "config": {}, "registered_name": null}, "beta_regularizer": null, "gamma_regularizer": null, "beta_constraint": null, "gamma_constraint": null}, "registered_name": null, "build_config": {"input_shape": [null, 32, 32, 128]}, "name": "batch_normalization_1087", "inbound_nodes": [[["conv2d_1132", 0, 0, {}]]]}, {"module": "keras.layers", "class_name": "Activation", "config": {"name": "activation_1087", "trainable": false, "dtype": "float32", "activation": "relu"}, "registered_name": null, "build_config": {"input_shape": [null, 32, 32, 128]}, "name": "activation_1087", "inbound_nodes": [[["batch_normalization_1087", 0, 0, {}]]]}, {"module": "keras.layers", "class_name": "ZeroPadding2D", "config": {"name": "zero_padding2d_383", "trainable": false, "dtype": "float32", "padding": [[1, 1], [1, 1]], "data_format": "channels_last"}, "registered_name": null, "build_config": {"input_shape": [null, 32, 32, 128]}, "name": "zero_padding2d_383", "inbound_nodes": [[["activation_1087", 0, 0, {}]]]}, {"module": "keras.layers", "class_name": "Conv2D", "config": {"name": "conv2d_1133", "trainable": false, "dtype": "float32", "filters": 128, "kernel_size": [3, 3], "strides": [1, 1], "padding": "valid", "data_format": "channels_last", "dilation_rate": [1, 1], "groups": 1, "activation": "linear", "use_bias": false, "kernel_initializer": {"module": "keras.initializers", "class_name": "GlorotUniform", "config": {"seed": null}, "registered_name": null}, "bias_initializer": {"module": "keras.initializers", "class_name": "Zeros", "config": {}, "registered_name": null}, "kernel_regularizer": null, "bias_regularizer": null, "activity_regularizer": null, "kernel_constraint": null, "bias_constraint": null}, "registered_name": null, "build_config": {"input_shape": [null, 34, 34, 128]}, "name": "conv2d_1133", "inbound_nodes": [[["zero_padding2d_383", 0, 0, {}]]]}, {"module": "keras.layers", "class_name": "BatchNormalization", "config": {"name": "batch_normalization_1088", "trainable": false, "dtype": "float32", "axis": [3], "momentum": 0.99, "epsilon": 1.001e-05, "center": true, "scale": true, "beta_initializer": {"module": "keras.initializers", "class_name": "Zeros", "config": {}, "registered_name": null}, "gamma_initializer": {"module": "keras.initializers", "class_name": "Ones", "config": {}, "registered_name": null}, "moving_mean_initializer": {"module": "keras.initializers", "class_name": "Zeros", "config": {}, "registered_name": null}, "moving_variance_initializer": {"module": "keras.initializers", "class_name": "Ones", "config": {}, "registered_name": null}, "beta_regularizer": null, "gamma_regularizer": null, "beta_constraint": null, "gamma_constraint": null}, "registered_name": null, "build_config": {"input_shape": [null, 32, 32, 128]}, "name": "batch_normalization_1088", "inbound_nodes": [[["conv2d_1133", 0, 0, {}]]]}, {"module": "keras.layers", "class_name": "Activation", "config": {"name": "activation_1088", "trainable": false, "dtype": "float32", "activation": "relu"}, "registered_name": null, "build_config": {"input_shape": [null, 32, 32, 128]}, "name": "activation_1088", "inbound_nodes": [[["batch_normalization_1088", 0, 0, {}]]]}, {"module": "keras.layers", "class_name": "Conv2D", "config": {"name": "conv2d_1134", "trainable": false, "dtype": "float32", "filters": 512, "kernel_size": [1, 1], "strides": [1, 1], "padding": "valid", "data_format": "channels_last", "dilation_rate": [1, 1], "groups": 1, "activation": "linear", "use_bias": true, "kernel_initializer": {"module": "keras.initializers", "class_name": "GlorotUniform", "config": {"seed": null}, "registered_name": null}, "bias_initializer": {"module": "keras.initializers", "class_name": "Zeros", "config": {}, "registered_name": null}, "kernel_regularizer": null, "bias_regularizer": null, "activity_regularizer": null, "kernel_constraint": null, "bias_constraint": null}, "registered_name": null, "build_config": {"input_shape": [null, 32, 32, 128]}, "name": "conv2d_1134", "inbound_nodes": [[["activation_1088", 0, 0, {}]]]}, {"module": "keras.layers", "class_name": "Add", "config": {"name": "add_361", "trainable": false, "dtype": "float32"}, "registered_name": null, "build_config": {"input_shape": [[null, 32, 32, 512], [null, 32, 32, 512]]}, "name": "add_361", "inbound_nodes": [[["add_360", 0, 0, {}], ["conv2d_1134", 0, 0, {}]]]}, {"module": "keras.layers", "class_name": "BatchNormalization", "config": {"name": "batch_normalization_1089", "trainable": false, "dtype": "float32", "axis": [3], "momentum": 0.99, "epsilon": 1.001e-05, "center": true, "scale": true, "beta_initializer": {"module": "keras.initializers", "class_name": "Zeros", "config": {}, "registered_name": null}, "gamma_initializer": {"module": "keras.initializers", "class_name": "Ones", "config": {}, "registered_name": null}, "moving_mean_initializer": {"module": "keras.initializers", "class_name": "Zeros", "config": {}, "registered_name": null}, "moving_variance_initializer": {"module": "keras.initializers", "class_name": "Ones", "config": {}, "registered_name": null}, "beta_regularizer": null, "gamma_regularizer": null, "beta_constraint": null, "gamma_constraint": null}, "registered_name": null, "build_config": {"input_shape": [null, 32, 32, 512]}, "name": "batch_normalization_1089", "inbound_nodes": [[["add_361", 0, 0, {}]]]}, {"module": "keras.layers", "class_name": "Activation", "config": {"name": "activation_1089", "trainable": false, "dtype": "float32", "activation": "relu"}, "registered_name": null, "build_config": {"input_shape": [null, 32, 32, 512]}, "name": "activation_1089", "inbound_nodes": [[["batch_normalization_1089", 0, 0, {}]]]}, {"module": "keras.layers", "class_name": "Conv2D", "config": {"name": "conv2d_1135", "trainable": false, "dtype": "float32", "filters": 128, "kernel_size": [1, 1], "strides": [1, 1], "padding": "valid", "data_format": "channels_last", "dilation_rate": [1, 1], "groups": 1, "activation": "linear", "use_bias": false, "kernel_initializer": {"module": "keras.initializers", "class_name": "GlorotUniform", "config": {"seed": null}, "registered_name": null}, "bias_initializer": {"module": "keras.initializers", "class_name": "Zeros", "config": {}, "registered_name": null}, "kernel_regularizer": null, "bias_regularizer": null, "activity_regularizer": null, "kernel_constraint": null, "bias_constraint": null}, "registered_name": null, "build_config": {"input_shape": [null, 32, 32, 512]}, "name": "conv2d_1135", "inbound_nodes": [[["activation_1089", 0, 0, {}]]]}, {"module": "keras.layers", "class_name": "BatchNormalization", "config": {"name": "batch_normalization_1090", "trainable": false, "dtype": "float32", "axis": [3], "momentum": 0.99, "epsilon": 1.001e-05, "center": true, "scale": true, "beta_initializer": {"module": "keras.initializers", "class_name": "Zeros", "config": {}, "registered_name": null}, "gamma_initializer": {"module": "keras.initializers", "class_name": "Ones", "config": {}, "registered_name": null}, "moving_mean_initializer": {"module": "keras.initializers", "class_name": "Zeros", "config": {}, "registered_name": null}, "moving_variance_initializer": {"module": "keras.initializers", "class_name": "Ones", "config": {}, "registered_name": null}, "beta_regularizer": null, "gamma_regularizer": null, "beta_constraint": null, "gamma_constraint": null}, "registered_name": null, "build_config": {"input_shape": [null, 32, 32, 128]}, "name": "batch_normalization_1090", "inbound_nodes": [[["conv2d_1135", 0, 0, {}]]]}, {"module": "keras.layers", "class_name": "Activation", "config": {"name": "activation_1090", "trainable": false, "dtype": "float32", "activation": "relu"}, "registered_name": null, "build_config": {"input_shape": [null, 32, 32, 128]}, "name": "activation_1090", "inbound_nodes": [[["batch_normalization_1090", 0, 0, {}]]]}, {"module": "keras.layers", "class_name": "ZeroPadding2D", "config": {"name": "zero_padding2d_384", "trainable": false, "dtype": "float32", "padding": [[1, 1], [1, 1]], "data_format": "channels_last"}, "registered_name": null, "build_config": {"input_shape": [null, 32, 32, 128]}, "name": "zero_padding2d_384", "inbound_nodes": [[["activation_1090", 0, 0, {}]]]}, {"module": "keras.layers", "class_name": "Conv2D", "config": {"name": "conv2d_1136", "trainable": false, "dtype": "float32", "filters": 128, "kernel_size": [3, 3], "strides": [2, 2], "padding": "valid", "data_format": "channels_last", "dilation_rate": [1, 1], "groups": 1, "activation": "linear", "use_bias": false, "kernel_initializer": {"module": "keras.initializers", "class_name": "GlorotUniform", "config": {"seed": null}, "registered_name": null}, "bias_initializer": {"module": "keras.initializers", "class_name": "Zeros", "config": {}, "registered_name": null}, "kernel_regularizer": null, "bias_regularizer": null, "activity_regularizer": null, "kernel_constraint": null, "bias_constraint": null}, "registered_name": null, "build_config": {"input_shape": [null, 34, 34, 128]}, "name": "conv2d_1136", "inbound_nodes": [[["zero_padding2d_384", 0, 0, {}]]]}, {"module": "keras.layers", "class_name": "BatchNormalization", "config": {"name": "batch_normalization_1091", "trainable": false, "dtype": "float32", "axis": [3], "momentum": 0.99, "epsilon": 1.001e-05, "center": true, "scale": true, "beta_initializer": {"module": "keras.initializers", "class_name": "Zeros", "config": {}, "registered_name": null}, "gamma_initializer": {"module": "keras.initializers", "class_name": "Ones", "config": {}, "registered_name": null}, "moving_mean_initializer": {"module": "keras.initializers", "class_name": "Zeros", "config": {}, "registered_name": null}, "moving_variance_initializer": {"module": "keras.initializers", "class_name": "Ones", "config": {}, "registered_name": null}, "beta_regularizer": null, "gamma_regularizer": null, "beta_constraint": null, "gamma_constraint": null}, "registered_name": null, "build_config": {"input_shape": [null, 16, 16, 128]}, "name": "batch_normalization_1091", "inbound_nodes": [[["conv2d_1136", 0, 0, {}]]]}, {"module": "keras.layers", "class_name": "Activation", "config": {"name": "activation_1091", "trainable": false, "dtype": "float32", "activation": "relu"}, "registered_name": null, "build_config": {"input_shape": [null, 16, 16, 128]}, "name": "activation_1091", "inbound_nodes": [[["batch_normalization_1091", 0, 0, {}]]]}, {"module": "keras.layers", "class_name": "MaxPooling2D", "config": {"name": "max_pooling2d_39", "trainable": false, "dtype": "float32", "pool_size": [1, 1], "padding": "valid", "strides": [2, 2], "data_format": "channels_last"}, "registered_name": null, "build_config": {"input_shape": [null, 32, 32, 512]}, "name": "max_pooling2d_39", "inbound_nodes": [[["add_361", 0, 0, {}]]]}, {"module": "keras.layers", "class_name": "Conv2D", "config": {"name": "conv2d_1137", "trainable": false, "dtype": "float32", "filters": 512, "kernel_size": [1, 1], "strides": [1, 1], "padding": "valid", "data_format": "channels_last", "dilation_rate": [1, 1], "groups": 1, "activation": "linear", "use_bias": true, "kernel_initializer": {"module": "keras.initializers", "class_name": "GlorotUniform", "config": {"seed": null}, "registered_name": null}, "bias_initializer": {"module": "keras.initializers", "class_name": "Zeros", "config": {}, "registered_name": null}, "kernel_regularizer": null, "bias_regularizer": null, "activity_regularizer": null, "kernel_constraint": null, "bias_constraint": null}, "registered_name": null, "build_config": {"input_shape": [null, 16, 16, 128]}, "name": "conv2d_1137", "inbound_nodes": [[["activation_1091", 0, 0, {}]]]}, {"module": "keras.layers", "class_name": "Add", "config": {"name": "add_362", "trainable": false, "dtype": "float32"}, "registered_name": null, "build_config": {"input_shape": [[null, 16, 16, 512], [null, 16, 16, 512]]}, "name": "add_362", "inbound_nodes": [[["max_pooling2d_39", 0, 0, {}], ["conv2d_1137", 0, 0, {}]]]}, {"module": "keras.layers", "class_name": "BatchNormalization", "config": {"name": "batch_normalization_1092", "trainable": false, "dtype": "float32", "axis": [3], "momentum": 0.99, "epsilon": 1.001e-05, "center": true, "scale": true, "beta_initializer": {"module": "keras.initializers", "class_name": "Zeros", "config": {}, "registered_name": null}, "gamma_initializer": {"module": "keras.initializers", "class_name": "Ones", "config": {}, "registered_name": null}, "moving_mean_initializer": {"module": "keras.initializers", "class_name": "Zeros", "config": {}, "registered_name": null}, "moving_variance_initializer": {"module": "keras.initializers", "class_name": "Ones", "config": {}, "registered_name": null}, "beta_regularizer": null, "gamma_regularizer": null, "beta_constraint": null, "gamma_constraint": null}, "registered_name": null, "build_config": {"input_shape": [null, 16, 16, 512]}, "name": "batch_normalization_1092", "inbound_nodes": [[["add_362", 0, 0, {}]]]}, {"module": "keras.layers", "class_name": "Activation", "config": {"name": "activation_1092", "trainable": false, "dtype": "float32", "activation": "relu"}, "registered_name": null, "build_config": {"input_shape": [null, 16, 16, 512]}, "name": "activation_1092", "inbound_nodes": [[["batch_normalization_1092", 0, 0, {}]]]}, {"module": "keras.layers", "class_name": "Conv2D", "config": {"name": "conv2d_1139", "trainable": false, "dtype": "float32", "filters": 256, "kernel_size": [1, 1], "strides": [1, 1], "padding": "valid", "data_format": "channels_last", "dilation_rate": [1, 1], "groups": 1, "activation": "linear", "use_bias": false, "kernel_initializer": {"module": "keras.initializers", "class_name": "GlorotUniform", "config": {"seed": null}, "registered_name": null}, "bias_initializer": {"module": "keras.initializers", "class_name": "Zeros", "config": {}, "registered_name": null}, "kernel_regularizer": null, "bias_regularizer": null, "activity_regularizer": null, "kernel_constraint": null, "bias_constraint": null}, "registered_name": null, "build_config": {"input_shape": [null, 16, 16, 512]}, "name": "conv2d_1139", "inbound_nodes": [[["activation_1092", 0, 0, {}]]]}, {"module": "keras.layers", "class_name": "BatchNormalization", "config": {"name": "batch_normalization_1093", "trainable": false, "dtype": "float32", "axis": [3], "momentum": 0.99, "epsilon": 1.001e-05, "center": true, "scale": true, "beta_initializer": {"module": "keras.initializers", "class_name": "Zeros", "config": {}, "registered_name": null}, "gamma_initializer": {"module": "keras.initializers", "class_name": "Ones", "config": {}, "registered_name": null}, "moving_mean_initializer": {"module": "keras.initializers", "class_name": "Zeros", "config": {}, "registered_name": null}, "moving_variance_initializer": {"module": "keras.initializers", "class_name": "Ones", "config": {}, "registered_name": null}, "beta_regularizer": null, "gamma_regularizer": null, "beta_constraint": null, "gamma_constraint": null}, "registered_name": null, "build_config": {"input_shape": [null, 16, 16, 256]}, "name": "batch_normalization_1093", "inbound_nodes": [[["conv2d_1139", 0, 0, {}]]]}, {"module": "keras.layers", "class_name": "Activation", "config": {"name": "activation_1093", "trainable": false, "dtype": "float32", "activation": "relu"}, "registered_name": null, "build_config": {"input_shape": [null, 16, 16, 256]}, "name": "activation_1093", "inbound_nodes": [[["batch_normalization_1093", 0, 0, {}]]]}, {"module": "keras.layers", "class_name": "ZeroPadding2D", "config": {"name": "zero_padding2d_385", "trainable": false, "dtype": "float32", "padding": [[1, 1], [1, 1]], "data_format": "channels_last"}, "registered_name": null, "build_config": {"input_shape": [null, 16, 16, 256]}, "name": "zero_padding2d_385", "inbound_nodes": [[["activation_1093", 0, 0, {}]]]}, {"module": "keras.layers", "class_name": "Conv2D", "config": {"name": "conv2d_1140", "trainable": false, "dtype": "float32", "filters": 256, "kernel_size": [3, 3], "strides": [1, 1], "padding": "valid", "data_format": "channels_last", "dilation_rate": [1, 1], "groups": 1, "activation": "linear", "use_bias": false, "kernel_initializer": {"module": "keras.initializers", "class_name": "GlorotUniform", "config": {"seed": null}, "registered_name": null}, "bias_initializer": {"module": "keras.initializers", "class_name": "Zeros", "config": {}, "registered_name": null}, "kernel_regularizer": null, "bias_regularizer": null, "activity_regularizer": null, "kernel_constraint": null, "bias_constraint": null}, "registered_name": null, "build_config": {"input_shape": [null, 18, 18, 256]}, "name": "conv2d_1140", "inbound_nodes": [[["zero_padding2d_385", 0, 0, {}]]]}, {"module": "keras.layers", "class_name": "BatchNormalization", "config": {"name": "batch_normalization_1094", "trainable": false, "dtype": "float32", "axis": [3], "momentum": 0.99, "epsilon": 1.001e-05, "center": true, "scale": true, "beta_initializer": {"module": "keras.initializers", "class_name": "Zeros", "config": {}, "registered_name": null}, "gamma_initializer": {"module": "keras.initializers", "class_name": "Ones", "config": {}, "registered_name": null}, "moving_mean_initializer": {"module": "keras.initializers", "class_name": "Zeros", "config": {}, "registered_name": null}, "moving_variance_initializer": {"module": "keras.initializers", "class_name": "Ones", "config": {}, "registered_name": null}, "beta_regularizer": null, "gamma_regularizer": null, "beta_constraint": null, "gamma_constraint": null}, "registered_name": null, "build_config": {"input_shape": [null, 16, 16, 256]}, "name": "batch_normalization_1094", "inbound_nodes": [[["conv2d_1140", 0, 0, {}]]]}, {"module": "keras.layers", "class_name": "Activation", "config": {"name": "activation_1094", "trainable": false, "dtype": "float32", "activation": "relu"}, "registered_name": null, "build_config": {"input_shape": [null, 16, 16, 256]}, "name": "activation_1094", "inbound_nodes": [[["batch_normalization_1094", 0, 0, {}]]]}, {"module": "keras.layers", "class_name": "Conv2D", "config": {"name": "conv2d_1138", "trainable": false, "dtype": "float32", "filters": 1024, "kernel_size": [1, 1], "strides": [1, 1], "padding": "valid", "data_format": "channels_last", "dilation_rate": [1, 1], "groups": 1, "activation": "linear", "use_bias": true, "kernel_initializer": {"module": "keras.initializers", "class_name": "GlorotUniform", "config": {"seed": null}, "registered_name": null}, "bias_initializer": {"module": "keras.initializers", "class_name": "Zeros", "config": {}, "registered_name": null}, "kernel_regularizer": null, "bias_regularizer": null, "activity_regularizer": null, "kernel_constraint": null, "bias_constraint": null}, "registered_name": null, "build_config": {"input_shape": [null, 16, 16, 512]}, "name": "conv2d_1138", "inbound_nodes": [[["activation_1092", 0, 0, {}]]]}, {"module": "keras.layers", "class_name": "Conv2D", "config": {"name": "conv2d_1141", "trainable": false, "dtype": "float32", "filters": 1024, "kernel_size": [1, 1], "strides": [1, 1], "padding": "valid", "data_format": "channels_last", "dilation_rate": [1, 1], "groups": 1, "activation": "linear", "use_bias": true, "kernel_initializer": {"module": "keras.initializers", "class_name": "GlorotUniform", "config": {"seed": null}, "registered_name": null}, "bias_initializer": {"module": "keras.initializers", "class_name": "Zeros", "config": {}, "registered_name": null}, "kernel_regularizer": null, "bias_regularizer": null, "activity_regularizer": null, "kernel_constraint": null, "bias_constraint": null}, "registered_name": null, "build_config": {"input_shape": [null, 16, 16, 256]}, "name": "conv2d_1141", "inbound_nodes": [[["activation_1094", 0, 0, {}]]]}, {"module": "keras.layers", "class_name": "Add", "config": {"name": "add_363", "trainable": false, "dtype": "float32"}, "registered_name": null, "build_config": {"input_shape": [[null, 16, 16, 1024], [null, 16, 16, 1024]]}, "name": "add_363", "inbound_nodes": [[["conv2d_1138", 0, 0, {}], ["conv2d_1141", 0, 0, {}]]]}, {"module": "keras.layers", "class_name": "BatchNormalization", "config": {"name": "batch_normalization_1095", "trainable": false, "dtype": "float32", "axis": [3], "momentum": 0.99, "epsilon": 1.001e-05, "center": true, "scale": true, "beta_initializer": {"module": "keras.initializers", "class_name": "Zeros", "config": {}, "registered_name": null}, "gamma_initializer": {"module": "keras.initializers", "class_name": "Ones", "config": {}, "registered_name": null}, "moving_mean_initializer": {"module": "keras.initializers", "class_name": "Zeros", "config": {}, "registered_name": null}, "moving_variance_initializer": {"module": "keras.initializers", "class_name": "Ones", "config": {}, "registered_name": null}, "beta_regularizer": null, "gamma_regularizer": null, "beta_constraint": null, "gamma_constraint": null}, "registered_name": null, "build_config": {"input_shape": [null, 16, 16, 1024]}, "name": "batch_normalization_1095", "inbound_nodes": [[["add_363", 0, 0, {}]]]}, {"module": "keras.layers", "class_name": "Activation", "config": {"name": "activation_1095", "trainable": false, "dtype": "float32", "activation": "relu"}, "registered_name": null, "build_config": {"input_shape": [null, 16, 16, 1024]}, "name": "activation_1095", "inbound_nodes": [[["batch_normalization_1095", 0, 0, {}]]]}, {"module": "keras.layers", "class_name": "Conv2D", "config": {"name": "conv2d_1142", "trainable": false, "dtype": "float32", "filters": 256, "kernel_size": [1, 1], "strides": [1, 1], "padding": "valid", "data_format": "channels_last", "dilation_rate": [1, 1], "groups": 1, "activation": "linear", "use_bias": false, "kernel_initializer": {"module": "keras.initializers", "class_name": "GlorotUniform", "config": {"seed": null}, "registered_name": null}, "bias_initializer": {"module": "keras.initializers", "class_name": "Zeros", "config": {}, "registered_name": null}, "kernel_regularizer": null, "bias_regularizer": null, "activity_regularizer": null, "kernel_constraint": null, "bias_constraint": null}, "registered_name": null, "build_config": {"input_shape": [null, 16, 16, 1024]}, "name": "conv2d_1142", "inbound_nodes": [[["activation_1095", 0, 0, {}]]]}, {"module": "keras.layers", "class_name": "BatchNormalization", "config": {"name": "batch_normalization_1096", "trainable": false, "dtype": "float32", "axis": [3], "momentum": 0.99, "epsilon": 1.001e-05, "center": true, "scale": true, "beta_initializer": {"module": "keras.initializers", "class_name": "Zeros", "config": {}, "registered_name": null}, "gamma_initializer": {"module": "keras.initializers", "class_name": "Ones", "config": {}, "registered_name": null}, "moving_mean_initializer": {"module": "keras.initializers", "class_name": "Zeros", "config": {}, "registered_name": null}, "moving_variance_initializer": {"module": "keras.initializers", "class_name": "Ones", "config": {}, "registered_name": null}, "beta_regularizer": null, "gamma_regularizer": null, "beta_constraint": null, "gamma_constraint": null}, "registered_name": null, "build_config": {"input_shape": [null, 16, 16, 256]}, "name": "batch_normalization_1096", "inbound_nodes": [[["conv2d_1142", 0, 0, {}]]]}, {"module": "keras.layers", "class_name": "Activation", "config": {"name": "activation_1096", "trainable": false, "dtype": "float32", "activation": "relu"}, "registered_name": null, "build_config": {"input_shape": [null, 16, 16, 256]}, "name": "activation_1096", "inbound_nodes": [[["batch_normalization_1096", 0, 0, {}]]]}, {"module": "keras.layers", "class_name": "ZeroPadding2D", "config": {"name": "zero_padding2d_386", "trainable": false, "dtype": "float32", "padding": [[1, 1], [1, 1]], "data_format": "channels_last"}, "registered_name": null, "build_config": {"input_shape": [null, 16, 16, 256]}, "name": "zero_padding2d_386", "inbound_nodes": [[["activation_1096", 0, 0, {}]]]}, {"module": "keras.layers", "class_name": "Conv2D", "config": {"name": "conv2d_1143", "trainable": false, "dtype": "float32", "filters": 256, "kernel_size": [3, 3], "strides": [1, 1], "padding": "valid", "data_format": "channels_last", "dilation_rate": [1, 1], "groups": 1, "activation": "linear", "use_bias": false, "kernel_initializer": {"module": "keras.initializers", "class_name": "GlorotUniform", "config": {"seed": null}, "registered_name": null}, "bias_initializer": {"module": "keras.initializers", "class_name": "Zeros", "config": {}, "registered_name": null}, "kernel_regularizer": null, "bias_regularizer": null, "activity_regularizer": null, "kernel_constraint": null, "bias_constraint": null}, "registered_name": null, "build_config": {"input_shape": [null, 18, 18, 256]}, "name": "conv2d_1143", "inbound_nodes": [[["zero_padding2d_386", 0, 0, {}]]]}, {"module": "keras.layers", "class_name": "BatchNormalization", "config": {"name": "batch_normalization_1097", "trainable": false, "dtype": "float32", "axis": [3], "momentum": 0.99, "epsilon": 1.001e-05, "center": true, "scale": true, "beta_initializer": {"module": "keras.initializers", "class_name": "Zeros", "config": {}, "registered_name": null}, "gamma_initializer": {"module": "keras.initializers", "class_name": "Ones", "config": {}, "registered_name": null}, "moving_mean_initializer": {"module": "keras.initializers", "class_name": "Zeros", "config": {}, "registered_name": null}, "moving_variance_initializer": {"module": "keras.initializers", "class_name": "Ones", "config": {}, "registered_name": null}, "beta_regularizer": null, "gamma_regularizer": null, "beta_constraint": null, "gamma_constraint": null}, "registered_name": null, "build_config": {"input_shape": [null, 16, 16, 256]}, "name": "batch_normalization_1097", "inbound_nodes": [[["conv2d_1143", 0, 0, {}]]]}, {"module": "keras.layers", "class_name": "Activation", "config": {"name": "activation_1097", "trainable": false, "dtype": "float32", "activation": "relu"}, "registered_name": null, "build_config": {"input_shape": [null, 16, 16, 256]}, "name": "activation_1097", "inbound_nodes": [[["batch_normalization_1097", 0, 0, {}]]]}, {"module": "keras.layers", "class_name": "Conv2D", "config": {"name": "conv2d_1144", "trainable": false, "dtype": "float32", "filters": 1024, "kernel_size": [1, 1], "strides": [1, 1], "padding": "valid", "data_format": "channels_last", "dilation_rate": [1, 1], "groups": 1, "activation": "linear", "use_bias": true, "kernel_initializer": {"module": "keras.initializers", "class_name": "GlorotUniform", "config": {"seed": null}, "registered_name": null}, "bias_initializer": {"module": "keras.initializers", "class_name": "Zeros", "config": {}, "registered_name": null}, "kernel_regularizer": null, "bias_regularizer": null, "activity_regularizer": null, "kernel_constraint": null, "bias_constraint": null}, "registered_name": null, "build_config": {"input_shape": [null, 16, 16, 256]}, "name": "conv2d_1144", "inbound_nodes": [[["activation_1097", 0, 0, {}]]]}, {"module": "keras.layers", "class_name": "Add", "config": {"name": "add_364", "trainable": false, "dtype": "float32"}, "registered_name": null, "build_config": {"input_shape": [[null, 16, 16, 1024], [null, 16, 16, 1024]]}, "name": "add_364", "inbound_nodes": [[["add_363", 0, 0, {}], ["conv2d_1144", 0, 0, {}]]]}, {"module": "keras.layers", "class_name": "BatchNormalization", "config": {"name": "batch_normalization_1098", "trainable": false, "dtype": "float32", "axis": [3], "momentum": 0.99, "epsilon": 1.001e-05, "center": true, "scale": true, "beta_initializer": {"module": "keras.initializers", "class_name": "Zeros", "config": {}, "registered_name": null}, "gamma_initializer": {"module": "keras.initializers", "class_name": "Ones", "config": {}, "registered_name": null}, "moving_mean_initializer": {"module": "keras.initializers", "class_name": "Zeros", "config": {}, "registered_name": null}, "moving_variance_initializer": {"module": "keras.initializers", "class_name": "Ones", "config": {}, "registered_name": null}, "beta_regularizer": null, "gamma_regularizer": null, "beta_constraint": null, "gamma_constraint": null}, "registered_name": null, "build_config": {"input_shape": [null, 16, 16, 1024]}, "name": "batch_normalization_1098", "inbound_nodes": [[["add_364", 0, 0, {}]]]}, {"module": "keras.layers", "class_name": "Activation", "config": {"name": "activation_1098", "trainable": false, "dtype": "float32", "activation": "relu"}, "registered_name": null, "build_config": {"input_shape": [null, 16, 16, 1024]}, "name": "activation_1098", "inbound_nodes": [[["batch_normalization_1098", 0, 0, {}]]]}, {"module": "keras.layers", "class_name": "Conv2D", "config": {"name": "conv2d_1145", "trainable": false, "dtype": "float32", "filters": 256, "kernel_size": [1, 1], "strides": [1, 1], "padding": "valid", "data_format": "channels_last", "dilation_rate": [1, 1], "groups": 1, "activation": "linear", "use_bias": false, "kernel_initializer": {"module": "keras.initializers", "class_name": "GlorotUniform", "config": {"seed": null}, "registered_name": null}, "bias_initializer": {"module": "keras.initializers", "class_name": "Zeros", "config": {}, "registered_name": null}, "kernel_regularizer": null, "bias_regularizer": null, "activity_regularizer": null, "kernel_constraint": null, "bias_constraint": null}, "registered_name": null, "build_config": {"input_shape": [null, 16, 16, 1024]}, "name": "conv2d_1145", "inbound_nodes": [[["activation_1098", 0, 0, {}]]]}, {"module": "keras.layers", "class_name": "BatchNormalization", "config": {"name": "batch_normalization_1099", "trainable": false, "dtype": "float32", "axis": [3], "momentum": 0.99, "epsilon": 1.001e-05, "center": true, "scale": true, "beta_initializer": {"module": "keras.initializers", "class_name": "Zeros", "config": {}, "registered_name": null}, "gamma_initializer": {"module": "keras.initializers", "class_name": "Ones", "config": {}, "registered_name": null}, "moving_mean_initializer": {"module": "keras.initializers", "class_name": "Zeros", "config": {}, "registered_name": null}, "moving_variance_initializer": {"module": "keras.initializers", "class_name": "Ones", "config": {}, "registered_name": null}, "beta_regularizer": null, "gamma_regularizer": null, "beta_constraint": null, "gamma_constraint": null}, "registered_name": null, "build_config": {"input_shape": [null, 16, 16, 256]}, "name": "batch_normalization_1099", "inbound_nodes": [[["conv2d_1145", 0, 0, {}]]]}, {"module": "keras.layers", "class_name": "Activation", "config": {"name": "activation_1099", "trainable": false, "dtype": "float32", "activation": "relu"}, "registered_name": null, "build_config": {"input_shape": [null, 16, 16, 256]}, "name": "activation_1099", "inbound_nodes": [[["batch_normalization_1099", 0, 0, {}]]]}, {"module": "keras.layers", "class_name": "ZeroPadding2D", "config": {"name": "zero_padding2d_387", "trainable": false, "dtype": "float32", "padding": [[1, 1], [1, 1]], "data_format": "channels_last"}, "registered_name": null, "build_config": {"input_shape": [null, 16, 16, 256]}, "name": "zero_padding2d_387", "inbound_nodes": [[["activation_1099", 0, 0, {}]]]}, {"module": "keras.layers", "class_name": "Conv2D", "config": {"name": "conv2d_1146", "trainable": false, "dtype": "float32", "filters": 256, "kernel_size": [3, 3], "strides": [1, 1], "padding": "valid", "data_format": "channels_last", "dilation_rate": [1, 1], "groups": 1, "activation": "linear", "use_bias": false, "kernel_initializer": {"module": "keras.initializers", "class_name": "GlorotUniform", "config": {"seed": null}, "registered_name": null}, "bias_initializer": {"module": "keras.initializers", "class_name": "Zeros", "config": {}, "registered_name": null}, "kernel_regularizer": null, "bias_regularizer": null, "activity_regularizer": null, "kernel_constraint": null, "bias_constraint": null}, "registered_name": null, "build_config": {"input_shape": [null, 18, 18, 256]}, "name": "conv2d_1146", "inbound_nodes": [[["zero_padding2d_387", 0, 0, {}]]]}, {"module": "keras.layers", "class_name": "BatchNormalization", "config": {"name": "batch_normalization_1100", "trainable": false, "dtype": "float32", "axis": [3], "momentum": 0.99, "epsilon": 1.001e-05, "center": true, "scale": true, "beta_initializer": {"module": "keras.initializers", "class_name": "Zeros", "config": {}, "registered_name": null}, "gamma_initializer": {"module": "keras.initializers", "class_name": "Ones", "config": {}, "registered_name": null}, "moving_mean_initializer": {"module": "keras.initializers", "class_name": "Zeros", "config": {}, "registered_name": null}, "moving_variance_initializer": {"module": "keras.initializers", "class_name": "Ones", "config": {}, "registered_name": null}, "beta_regularizer": null, "gamma_regularizer": null, "beta_constraint": null, "gamma_constraint": null}, "registered_name": null, "build_config": {"input_shape": [null, 16, 16, 256]}, "name": "batch_normalization_1100", "inbound_nodes": [[["conv2d_1146", 0, 0, {}]]]}, {"module": "keras.layers", "class_name": "Activation", "config": {"name": "activation_1100", "trainable": false, "dtype": "float32", "activation": "relu"}, "registered_name": null, "build_config": {"input_shape": [null, 16, 16, 256]}, "name": "activation_1100", "inbound_nodes": [[["batch_normalization_1100", 0, 0, {}]]]}, {"module": "keras.layers", "class_name": "Conv2D", "config": {"name": "conv2d_1147", "trainable": false, "dtype": "float32", "filters": 1024, "kernel_size": [1, 1], "strides": [1, 1], "padding": "valid", "data_format": "channels_last", "dilation_rate": [1, 1], "groups": 1, "activation": "linear", "use_bias": true, "kernel_initializer": {"module": "keras.initializers", "class_name": "GlorotUniform", "config": {"seed": null}, "registered_name": null}, "bias_initializer": {"module": "keras.initializers", "class_name": "Zeros", "config": {}, "registered_name": null}, "kernel_regularizer": null, "bias_regularizer": null, "activity_regularizer": null, "kernel_constraint": null, "bias_constraint": null}, "registered_name": null, "build_config": {"input_shape": [null, 16, 16, 256]}, "name": "conv2d_1147", "inbound_nodes": [[["activation_1100", 0, 0, {}]]]}, {"module": "keras.layers", "class_name": "Add", "config": {"name": "add_365", "trainable": false, "dtype": "float32"}, "registered_name": null, "build_config": {"input_shape": [[null, 16, 16, 1024], [null, 16, 16, 1024]]}, "name": "add_365", "inbound_nodes": [[["add_364", 0, 0, {}], ["conv2d_1147", 0, 0, {}]]]}, {"module": "keras.layers", "class_name": "BatchNormalization", "config": {"name": "batch_normalization_1101", "trainable": false, "dtype": "float32", "axis": [3], "momentum": 0.99, "epsilon": 1.001e-05, "center": true, "scale": true, "beta_initializer": {"module": "keras.initializers", "class_name": "Zeros", "config": {}, "registered_name": null}, "gamma_initializer": {"module": "keras.initializers", "class_name": "Ones", "config": {}, "registered_name": null}, "moving_mean_initializer": {"module": "keras.initializers", "class_name": "Zeros", "config": {}, "registered_name": null}, "moving_variance_initializer": {"module": "keras.initializers", "class_name": "Ones", "config": {}, "registered_name": null}, "beta_regularizer": null, "gamma_regularizer": null, "beta_constraint": null, "gamma_constraint": null}, "registered_name": null, "build_config": {"input_shape": [null, 16, 16, 1024]}, "name": "batch_normalization_1101", "inbound_nodes": [[["add_365", 0, 0, {}]]]}, {"module": "keras.layers", "class_name": "Activation", "config": {"name": "activation_1101", "trainable": false, "dtype": "float32", "activation": "relu"}, "registered_name": null, "build_config": {"input_shape": [null, 16, 16, 1024]}, "name": "activation_1101", "inbound_nodes": [[["batch_normalization_1101", 0, 0, {}]]]}, {"module": "keras.layers", "class_name": "Conv2D", "config": {"name": "conv2d_1148", "trainable": false, "dtype": "float32", "filters": 256, "kernel_size": [1, 1], "strides": [1, 1], "padding": "valid", "data_format": "channels_last", "dilation_rate": [1, 1], "groups": 1, "activation": "linear", "use_bias": false, "kernel_initializer": {"module": "keras.initializers", "class_name": "GlorotUniform", "config": {"seed": null}, "registered_name": null}, "bias_initializer": {"module": "keras.initializers", "class_name": "Zeros", "config": {}, "registered_name": null}, "kernel_regularizer": null, "bias_regularizer": null, "activity_regularizer": null, "kernel_constraint": null, "bias_constraint": null}, "registered_name": null, "build_config": {"input_shape": [null, 16, 16, 1024]}, "name": "conv2d_1148", "inbound_nodes": [[["activation_1101", 0, 0, {}]]]}, {"module": "keras.layers", "class_name": "BatchNormalization", "config": {"name": "batch_normalization_1102", "trainable": false, "dtype": "float32", "axis": [3], "momentum": 0.99, "epsilon": 1.001e-05, "center": true, "scale": true, "beta_initializer": {"module": "keras.initializers", "class_name": "Zeros", "config": {}, "registered_name": null}, "gamma_initializer": {"module": "keras.initializers", "class_name": "Ones", "config": {}, "registered_name": null}, "moving_mean_initializer": {"module": "keras.initializers", "class_name": "Zeros", "config": {}, "registered_name": null}, "moving_variance_initializer": {"module": "keras.initializers", "class_name": "Ones", "config": {}, "registered_name": null}, "beta_regularizer": null, "gamma_regularizer": null, "beta_constraint": null, "gamma_constraint": null}, "registered_name": null, "build_config": {"input_shape": [null, 16, 16, 256]}, "name": "batch_normalization_1102", "inbound_nodes": [[["conv2d_1148", 0, 0, {}]]]}, {"module": "keras.layers", "class_name": "Activation", "config": {"name": "activation_1102", "trainable": false, "dtype": "float32", "activation": "relu"}, "registered_name": null, "build_config": {"input_shape": [null, 16, 16, 256]}, "name": "activation_1102", "inbound_nodes": [[["batch_normalization_1102", 0, 0, {}]]]}, {"module": "keras.layers", "class_name": "ZeroPadding2D", "config": {"name": "zero_padding2d_388", "trainable": false, "dtype": "float32", "padding": [[1, 1], [1, 1]], "data_format": "channels_last"}, "registered_name": null, "build_config": {"input_shape": [null, 16, 16, 256]}, "name": "zero_padding2d_388", "inbound_nodes": [[["activation_1102", 0, 0, {}]]]}, {"module": "keras.layers", "class_name": "Conv2D", "config": {"name": "conv2d_1149", "trainable": false, "dtype": "float32", "filters": 256, "kernel_size": [3, 3], "strides": [1, 1], "padding": "valid", "data_format": "channels_last", "dilation_rate": [1, 1], "groups": 1, "activation": "linear", "use_bias": false, "kernel_initializer": {"module": "keras.initializers", "class_name": "GlorotUniform", "config": {"seed": null}, "registered_name": null}, "bias_initializer": {"module": "keras.initializers", "class_name": "Zeros", "config": {}, "registered_name": null}, "kernel_regularizer": null, "bias_regularizer": null, "activity_regularizer": null, "kernel_constraint": null, "bias_constraint": null}, "registered_name": null, "build_config": {"input_shape": [null, 18, 18, 256]}, "name": "conv2d_1149", "inbound_nodes": [[["zero_padding2d_388", 0, 0, {}]]]}, {"module": "keras.layers", "class_name": "BatchNormalization", "config": {"name": "batch_normalization_1103", "trainable": false, "dtype": "float32", "axis": [3], "momentum": 0.99, "epsilon": 1.001e-05, "center": true, "scale": true, "beta_initializer": {"module": "keras.initializers", "class_name": "Zeros", "config": {}, "registered_name": null}, "gamma_initializer": {"module": "keras.initializers", "class_name": "Ones", "config": {}, "registered_name": null}, "moving_mean_initializer": {"module": "keras.initializers", "class_name": "Zeros", "config": {}, "registered_name": null}, "moving_variance_initializer": {"module": "keras.initializers", "class_name": "Ones", "config": {}, "registered_name": null}, "beta_regularizer": null, "gamma_regularizer": null, "beta_constraint": null, "gamma_constraint": null}, "registered_name": null, "build_config": {"input_shape": [null, 16, 16, 256]}, "name": "batch_normalization_1103", "inbound_nodes": [[["conv2d_1149", 0, 0, {}]]]}, {"module": "keras.layers", "class_name": "Activation", "config": {"name": "activation_1103", "trainable": false, "dtype": "float32", "activation": "relu"}, "registered_name": null, "build_config": {"input_shape": [null, 16, 16, 256]}, "name": "activation_1103", "inbound_nodes": [[["batch_normalization_1103", 0, 0, {}]]]}, {"module": "keras.layers", "class_name": "Conv2D", "config": {"name": "conv2d_1150", "trainable": false, "dtype": "float32", "filters": 1024, "kernel_size": [1, 1], "strides": [1, 1], "padding": "valid", "data_format": "channels_last", "dilation_rate": [1, 1], "groups": 1, "activation": "linear", "use_bias": true, "kernel_initializer": {"module": "keras.initializers", "class_name": "GlorotUniform", "config": {"seed": null}, "registered_name": null}, "bias_initializer": {"module": "keras.initializers", "class_name": "Zeros", "config": {}, "registered_name": null}, "kernel_regularizer": null, "bias_regularizer": null, "activity_regularizer": null, "kernel_constraint": null, "bias_constraint": null}, "registered_name": null, "build_config": {"input_shape": [null, 16, 16, 256]}, "name": "conv2d_1150", "inbound_nodes": [[["activation_1103", 0, 0, {}]]]}, {"module": "keras.layers", "class_name": "Add", "config": {"name": "add_366", "trainable": false, "dtype": "float32"}, "registered_name": null, "build_config": {"input_shape": [[null, 16, 16, 1024], [null, 16, 16, 1024]]}, "name": "add_366", "inbound_nodes": [[["add_365", 0, 0, {}], ["conv2d_1150", 0, 0, {}]]]}, {"module": "keras.layers", "class_name": "BatchNormalization", "config": {"name": "batch_normalization_1104", "trainable": false, "dtype": "float32", "axis": [3], "momentum": 0.99, "epsilon": 1.001e-05, "center": true, "scale": true, "beta_initializer": {"module": "keras.initializers", "class_name": "Zeros", "config": {}, "registered_name": null}, "gamma_initializer": {"module": "keras.initializers", "class_name": "Ones", "config": {}, "registered_name": null}, "moving_mean_initializer": {"module": "keras.initializers", "class_name": "Zeros", "config": {}, "registered_name": null}, "moving_variance_initializer": {"module": "keras.initializers", "class_name": "Ones", "config": {}, "registered_name": null}, "beta_regularizer": null, "gamma_regularizer": null, "beta_constraint": null, "gamma_constraint": null}, "registered_name": null, "build_config": {"input_shape": [null, 16, 16, 1024]}, "name": "batch_normalization_1104", "inbound_nodes": [[["add_366", 0, 0, {}]]]}, {"module": "keras.layers", "class_name": "Activation", "config": {"name": "activation_1104", "trainable": false, "dtype": "float32", "activation": "relu"}, "registered_name": null, "build_config": {"input_shape": [null, 16, 16, 1024]}, "name": "activation_1104", "inbound_nodes": [[["batch_normalization_1104", 0, 0, {}]]]}, {"module": "keras.layers", "class_name": "Conv2D", "config": {"name": "conv2d_1151", "trainable": false, "dtype": "float32", "filters": 256, "kernel_size": [1, 1], "strides": [1, 1], "padding": "valid", "data_format": "channels_last", "dilation_rate": [1, 1], "groups": 1, "activation": "linear", "use_bias": false, "kernel_initializer": {"module": "keras.initializers", "class_name": "GlorotUniform", "config": {"seed": null}, "registered_name": null}, "bias_initializer": {"module": "keras.initializers", "class_name": "Zeros", "config": {}, "registered_name": null}, "kernel_regularizer": null, "bias_regularizer": null, "activity_regularizer": null, "kernel_constraint": null, "bias_constraint": null}, "registered_name": null, "build_config": {"input_shape": [null, 16, 16, 1024]}, "name": "conv2d_1151", "inbound_nodes": [[["activation_1104", 0, 0, {}]]]}, {"module": "keras.layers", "class_name": "BatchNormalization", "config": {"name": "batch_normalization_1105", "trainable": false, "dtype": "float32", "axis": [3], "momentum": 0.99, "epsilon": 1.001e-05, "center": true, "scale": true, "beta_initializer": {"module": "keras.initializers", "class_name": "Zeros", "config": {}, "registered_name": null}, "gamma_initializer": {"module": "keras.initializers", "class_name": "Ones", "config": {}, "registered_name": null}, "moving_mean_initializer": {"module": "keras.initializers", "class_name": "Zeros", "config": {}, "registered_name": null}, "moving_variance_initializer": {"module": "keras.initializers", "class_name": "Ones", "config": {}, "registered_name": null}, "beta_regularizer": null, "gamma_regularizer": null, "beta_constraint": null, "gamma_constraint": null}, "registered_name": null, "build_config": {"input_shape": [null, 16, 16, 256]}, "name": "batch_normalization_1105", "inbound_nodes": [[["conv2d_1151", 0, 0, {}]]]}, {"module": "keras.layers", "class_name": "Activation", "config": {"name": "activation_1105", "trainable": false, "dtype": "float32", "activation": "relu"}, "registered_name": null, "build_config": {"input_shape": [null, 16, 16, 256]}, "name": "activation_1105", "inbound_nodes": [[["batch_normalization_1105", 0, 0, {}]]]}, {"module": "keras.layers", "class_name": "ZeroPadding2D", "config": {"name": "zero_padding2d_389", "trainable": false, "dtype": "float32", "padding": [[1, 1], [1, 1]], "data_format": "channels_last"}, "registered_name": null, "build_config": {"input_shape": [null, 16, 16, 256]}, "name": "zero_padding2d_389", "inbound_nodes": [[["activation_1105", 0, 0, {}]]]}, {"module": "keras.layers", "class_name": "Conv2D", "config": {"name": "conv2d_1152", "trainable": false, "dtype": "float32", "filters": 256, "kernel_size": [3, 3], "strides": [1, 1], "padding": "valid", "data_format": "channels_last", "dilation_rate": [1, 1], "groups": 1, "activation": "linear", "use_bias": false, "kernel_initializer": {"module": "keras.initializers", "class_name": "GlorotUniform", "config": {"seed": null}, "registered_name": null}, "bias_initializer": {"module": "keras.initializers", "class_name": "Zeros", "config": {}, "registered_name": null}, "kernel_regularizer": null, "bias_regularizer": null, "activity_regularizer": null, "kernel_constraint": null, "bias_constraint": null}, "registered_name": null, "build_config": {"input_shape": [null, 18, 18, 256]}, "name": "conv2d_1152", "inbound_nodes": [[["zero_padding2d_389", 0, 0, {}]]]}, {"module": "keras.layers", "class_name": "BatchNormalization", "config": {"name": "batch_normalization_1106", "trainable": false, "dtype": "float32", "axis": [3], "momentum": 0.99, "epsilon": 1.001e-05, "center": true, "scale": true, "beta_initializer": {"module": "keras.initializers", "class_name": "Zeros", "config": {}, "registered_name": null}, "gamma_initializer": {"module": "keras.initializers", "class_name": "Ones", "config": {}, "registered_name": null}, "moving_mean_initializer": {"module": "keras.initializers", "class_name": "Zeros", "config": {}, "registered_name": null}, "moving_variance_initializer": {"module": "keras.initializers", "class_name": "Ones", "config": {}, "registered_name": null}, "beta_regularizer": null, "gamma_regularizer": null, "beta_constraint": null, "gamma_constraint": null}, "registered_name": null, "build_config": {"input_shape": [null, 16, 16, 256]}, "name": "batch_normalization_1106", "inbound_nodes": [[["conv2d_1152", 0, 0, {}]]]}, {"module": "keras.layers", "class_name": "Activation", "config": {"name": "activation_1106", "trainable": false, "dtype": "float32", "activation": "relu"}, "registered_name": null, "build_config": {"input_shape": [null, 16, 16, 256]}, "name": "activation_1106", "inbound_nodes": [[["batch_normalization_1106", 0, 0, {}]]]}, {"module": "keras.layers", "class_name": "Conv2D", "config": {"name": "conv2d_1153", "trainable": false, "dtype": "float32", "filters": 1024, "kernel_size": [1, 1], "strides": [1, 1], "padding": "valid", "data_format": "channels_last", "dilation_rate": [1, 1], "groups": 1, "activation": "linear", "use_bias": true, "kernel_initializer": {"module": "keras.initializers", "class_name": "GlorotUniform", "config": {"seed": null}, "registered_name": null}, "bias_initializer": {"module": "keras.initializers", "class_name": "Zeros", "config": {}, "registered_name": null}, "kernel_regularizer": null, "bias_regularizer": null, "activity_regularizer": null, "kernel_constraint": null, "bias_constraint": null}, "registered_name": null, "build_config": {"input_shape": [null, 16, 16, 256]}, "name": "conv2d_1153", "inbound_nodes": [[["activation_1106", 0, 0, {}]]]}, {"module": "keras.layers", "class_name": "Add", "config": {"name": "add_367", "trainable": false, "dtype": "float32"}, "registered_name": null, "build_config": {"input_shape": [[null, 16, 16, 1024], [null, 16, 16, 1024]]}, "name": "add_367", "inbound_nodes": [[["add_366", 0, 0, {}], ["conv2d_1153", 0, 0, {}]]]}, {"module": "keras.layers", "class_name": "BatchNormalization", "config": {"name": "batch_normalization_1107", "trainable": false, "dtype": "float32", "axis": [3], "momentum": 0.99, "epsilon": 1.001e-05, "center": true, "scale": true, "beta_initializer": {"module": "keras.initializers", "class_name": "Zeros", "config": {}, "registered_name": null}, "gamma_initializer": {"module": "keras.initializers", "class_name": "Ones", "config": {}, "registered_name": null}, "moving_mean_initializer": {"module": "keras.initializers", "class_name": "Zeros", "config": {}, "registered_name": null}, "moving_variance_initializer": {"module": "keras.initializers", "class_name": "Ones", "config": {}, "registered_name": null}, "beta_regularizer": null, "gamma_regularizer": null, "beta_constraint": null, "gamma_constraint": null}, "registered_name": null, "build_config": {"input_shape": [null, 16, 16, 1024]}, "name": "batch_normalization_1107", "inbound_nodes": [[["add_367", 0, 0, {}]]]}, {"module": "keras.layers", "class_name": "Activation", "config": {"name": "activation_1107", "trainable": false, "dtype": "float32", "activation": "relu"}, "registered_name": null, "build_config": {"input_shape": [null, 16, 16, 1024]}, "name": "activation_1107", "inbound_nodes": [[["batch_normalization_1107", 0, 0, {}]]]}, {"module": "keras.layers", "class_name": "Conv2D", "config": {"name": "conv2d_1154", "trainable": false, "dtype": "float32", "filters": 256, "kernel_size": [1, 1], "strides": [1, 1], "padding": "valid", "data_format": "channels_last", "dilation_rate": [1, 1], "groups": 1, "activation": "linear", "use_bias": false, "kernel_initializer": {"module": "keras.initializers", "class_name": "GlorotUniform", "config": {"seed": null}, "registered_name": null}, "bias_initializer": {"module": "keras.initializers", "class_name": "Zeros", "config": {}, "registered_name": null}, "kernel_regularizer": null, "bias_regularizer": null, "activity_regularizer": null, "kernel_constraint": null, "bias_constraint": null}, "registered_name": null, "build_config": {"input_shape": [null, 16, 16, 1024]}, "name": "conv2d_1154", "inbound_nodes": [[["activation_1107", 0, 0, {}]]]}, {"module": "keras.layers", "class_name": "BatchNormalization", "config": {"name": "batch_normalization_1108", "trainable": false, "dtype": "float32", "axis": [3], "momentum": 0.99, "epsilon": 1.001e-05, "center": true, "scale": true, "beta_initializer": {"module": "keras.initializers", "class_name": "Zeros", "config": {}, "registered_name": null}, "gamma_initializer": {"module": "keras.initializers", "class_name": "Ones", "config": {}, "registered_name": null}, "moving_mean_initializer": {"module": "keras.initializers", "class_name": "Zeros", "config": {}, "registered_name": null}, "moving_variance_initializer": {"module": "keras.initializers", "class_name": "Ones", "config": {}, "registered_name": null}, "beta_regularizer": null, "gamma_regularizer": null, "beta_constraint": null, "gamma_constraint": null}, "registered_name": null, "build_config": {"input_shape": [null, 16, 16, 256]}, "name": "batch_normalization_1108", "inbound_nodes": [[["conv2d_1154", 0, 0, {}]]]}, {"module": "keras.layers", "class_name": "Activation", "config": {"name": "activation_1108", "trainable": false, "dtype": "float32", "activation": "relu"}, "registered_name": null, "build_config": {"input_shape": [null, 16, 16, 256]}, "name": "activation_1108", "inbound_nodes": [[["batch_normalization_1108", 0, 0, {}]]]}, {"module": "keras.layers", "class_name": "ZeroPadding2D", "config": {"name": "zero_padding2d_390", "trainable": false, "dtype": "float32", "padding": [[1, 1], [1, 1]], "data_format": "channels_last"}, "registered_name": null, "build_config": {"input_shape": [null, 16, 16, 256]}, "name": "zero_padding2d_390", "inbound_nodes": [[["activation_1108", 0, 0, {}]]]}, {"module": "keras.layers", "class_name": "Conv2D", "config": {"name": "conv2d_1155", "trainable": false, "dtype": "float32", "filters": 256, "kernel_size": [3, 3], "strides": [1, 1], "padding": "valid", "data_format": "channels_last", "dilation_rate": [1, 1], "groups": 1, "activation": "linear", "use_bias": false, "kernel_initializer": {"module": "keras.initializers", "class_name": "GlorotUniform", "config": {"seed": null}, "registered_name": null}, "bias_initializer": {"module": "keras.initializers", "class_name": "Zeros", "config": {}, "registered_name": null}, "kernel_regularizer": null, "bias_regularizer": null, "activity_regularizer": null, "kernel_constraint": null, "bias_constraint": null}, "registered_name": null, "build_config": {"input_shape": [null, 18, 18, 256]}, "name": "conv2d_1155", "inbound_nodes": [[["zero_padding2d_390", 0, 0, {}]]]}, {"module": "keras.layers", "class_name": "BatchNormalization", "config": {"name": "batch_normalization_1109", "trainable": false, "dtype": "float32", "axis": [3], "momentum": 0.99, "epsilon": 1.001e-05, "center": true, "scale": true, "beta_initializer": {"module": "keras.initializers", "class_name": "Zeros", "config": {}, "registered_name": null}, "gamma_initializer": {"module": "keras.initializers", "class_name": "Ones", "config": {}, "registered_name": null}, "moving_mean_initializer": {"module": "keras.initializers", "class_name": "Zeros", "config": {}, "registered_name": null}, "moving_variance_initializer": {"module": "keras.initializers", "class_name": "Ones", "config": {}, "registered_name": null}, "beta_regularizer": null, "gamma_regularizer": null, "beta_constraint": null, "gamma_constraint": null}, "registered_name": null, "build_config": {"input_shape": [null, 16, 16, 256]}, "name": "batch_normalization_1109", "inbound_nodes": [[["conv2d_1155", 0, 0, {}]]]}, {"module": "keras.layers", "class_name": "Activation", "config": {"name": "activation_1109", "trainable": false, "dtype": "float32", "activation": "relu"}, "registered_name": null, "build_config": {"input_shape": [null, 16, 16, 256]}, "name": "activation_1109", "inbound_nodes": [[["batch_normalization_1109", 0, 0, {}]]]}, {"module": "keras.layers", "class_name": "Conv2D", "config": {"name": "conv2d_1156", "trainable": false, "dtype": "float32", "filters": 1024, "kernel_size": [1, 1], "strides": [1, 1], "padding": "valid", "data_format": "channels_last", "dilation_rate": [1, 1], "groups": 1, "activation": "linear", "use_bias": true, "kernel_initializer": {"module": "keras.initializers", "class_name": "GlorotUniform", "config": {"seed": null}, "registered_name": null}, "bias_initializer": {"module": "keras.initializers", "class_name": "Zeros", "config": {}, "registered_name": null}, "kernel_regularizer": null, "bias_regularizer": null, "activity_regularizer": null, "kernel_constraint": null, "bias_constraint": null}, "registered_name": null, "build_config": {"input_shape": [null, 16, 16, 256]}, "name": "conv2d_1156", "inbound_nodes": [[["activation_1109", 0, 0, {}]]]}, {"module": "keras.layers", "class_name": "Add", "config": {"name": "add_368", "trainable": false, "dtype": "float32"}, "registered_name": null, "build_config": {"input_shape": [[null, 16, 16, 1024], [null, 16, 16, 1024]]}, "name": "add_368", "inbound_nodes": [[["add_367", 0, 0, {}], ["conv2d_1156", 0, 0, {}]]]}, {"module": "keras.layers", "class_name": "BatchNormalization", "config": {"name": "batch_normalization_1110", "trainable": false, "dtype": "float32", "axis": [3], "momentum": 0.99, "epsilon": 1.001e-05, "center": true, "scale": true, "beta_initializer": {"module": "keras.initializers", "class_name": "Zeros", "config": {}, "registered_name": null}, "gamma_initializer": {"module": "keras.initializers", "class_name": "Ones", "config": {}, "registered_name": null}, "moving_mean_initializer": {"module": "keras.initializers", "class_name": "Zeros", "config": {}, "registered_name": null}, "moving_variance_initializer": {"module": "keras.initializers", "class_name": "Ones", "config": {}, "registered_name": null}, "beta_regularizer": null, "gamma_regularizer": null, "beta_constraint": null, "gamma_constraint": null}, "registered_name": null, "build_config": {"input_shape": [null, 16, 16, 1024]}, "name": "batch_normalization_1110", "inbound_nodes": [[["add_368", 0, 0, {}]]]}, {"module": "keras.layers", "class_name": "Activation", "config": {"name": "activation_1110", "trainable": false, "dtype": "float32", "activation": "relu"}, "registered_name": null, "build_config": {"input_shape": [null, 16, 16, 1024]}, "name": "activation_1110", "inbound_nodes": [[["batch_normalization_1110", 0, 0, {}]]]}, {"module": "keras.layers", "class_name": "Conv2D", "config": {"name": "conv2d_1157", "trainable": false, "dtype": "float32", "filters": 256, "kernel_size": [1, 1], "strides": [1, 1], "padding": "valid", "data_format": "channels_last", "dilation_rate": [1, 1], "groups": 1, "activation": "linear", "use_bias": false, "kernel_initializer": {"module": "keras.initializers", "class_name": "GlorotUniform", "config": {"seed": null}, "registered_name": null}, "bias_initializer": {"module": "keras.initializers", "class_name": "Zeros", "config": {}, "registered_name": null}, "kernel_regularizer": null, "bias_regularizer": null, "activity_regularizer": null, "kernel_constraint": null, "bias_constraint": null}, "registered_name": null, "build_config": {"input_shape": [null, 16, 16, 1024]}, "name": "conv2d_1157", "inbound_nodes": [[["activation_1110", 0, 0, {}]]]}, {"module": "keras.layers", "class_name": "BatchNormalization", "config": {"name": "batch_normalization_1111", "trainable": false, "dtype": "float32", "axis": [3], "momentum": 0.99, "epsilon": 1.001e-05, "center": true, "scale": true, "beta_initializer": {"module": "keras.initializers", "class_name": "Zeros", "config": {}, "registered_name": null}, "gamma_initializer": {"module": "keras.initializers", "class_name": "Ones", "config": {}, "registered_name": null}, "moving_mean_initializer": {"module": "keras.initializers", "class_name": "Zeros", "config": {}, "registered_name": null}, "moving_variance_initializer": {"module": "keras.initializers", "class_name": "Ones", "config": {}, "registered_name": null}, "beta_regularizer": null, "gamma_regularizer": null, "beta_constraint": null, "gamma_constraint": null}, "registered_name": null, "build_config": {"input_shape": [null, 16, 16, 256]}, "name": "batch_normalization_1111", "inbound_nodes": [[["conv2d_1157", 0, 0, {}]]]}, {"module": "keras.layers", "class_name": "Activation", "config": {"name": "activation_1111", "trainable": false, "dtype": "float32", "activation": "relu"}, "registered_name": null, "build_config": {"input_shape": [null, 16, 16, 256]}, "name": "activation_1111", "inbound_nodes": [[["batch_normalization_1111", 0, 0, {}]]]}, {"module": "keras.layers", "class_name": "ZeroPadding2D", "config": {"name": "zero_padding2d_391", "trainable": false, "dtype": "float32", "padding": [[1, 1], [1, 1]], "data_format": "channels_last"}, "registered_name": null, "build_config": {"input_shape": [null, 16, 16, 256]}, "name": "zero_padding2d_391", "inbound_nodes": [[["activation_1111", 0, 0, {}]]]}, {"module": "keras.layers", "class_name": "Conv2D", "config": {"name": "conv2d_1158", "trainable": false, "dtype": "float32", "filters": 256, "kernel_size": [3, 3], "strides": [1, 1], "padding": "valid", "data_format": "channels_last", "dilation_rate": [1, 1], "groups": 1, "activation": "linear", "use_bias": false, "kernel_initializer": {"module": "keras.initializers", "class_name": "GlorotUniform", "config": {"seed": null}, "registered_name": null}, "bias_initializer": {"module": "keras.initializers", "class_name": "Zeros", "config": {}, "registered_name": null}, "kernel_regularizer": null, "bias_regularizer": null, "activity_regularizer": null, "kernel_constraint": null, "bias_constraint": null}, "registered_name": null, "build_config": {"input_shape": [null, 18, 18, 256]}, "name": "conv2d_1158", "inbound_nodes": [[["zero_padding2d_391", 0, 0, {}]]]}, {"module": "keras.layers", "class_name": "BatchNormalization", "config": {"name": "batch_normalization_1112", "trainable": false, "dtype": "float32", "axis": [3], "momentum": 0.99, "epsilon": 1.001e-05, "center": true, "scale": true, "beta_initializer": {"module": "keras.initializers", "class_name": "Zeros", "config": {}, "registered_name": null}, "gamma_initializer": {"module": "keras.initializers", "class_name": "Ones", "config": {}, "registered_name": null}, "moving_mean_initializer": {"module": "keras.initializers", "class_name": "Zeros", "config": {}, "registered_name": null}, "moving_variance_initializer": {"module": "keras.initializers", "class_name": "Ones", "config": {}, "registered_name": null}, "beta_regularizer": null, "gamma_regularizer": null, "beta_constraint": null, "gamma_constraint": null}, "registered_name": null, "build_config": {"input_shape": [null, 16, 16, 256]}, "name": "batch_normalization_1112", "inbound_nodes": [[["conv2d_1158", 0, 0, {}]]]}, {"module": "keras.layers", "class_name": "Activation", "config": {"name": "activation_1112", "trainable": false, "dtype": "float32", "activation": "relu"}, "registered_name": null, "build_config": {"input_shape": [null, 16, 16, 256]}, "name": "activation_1112", "inbound_nodes": [[["batch_normalization_1112", 0, 0, {}]]]}, {"module": "keras.layers", "class_name": "Conv2D", "config": {"name": "conv2d_1159", "trainable": false, "dtype": "float32", "filters": 1024, "kernel_size": [1, 1], "strides": [1, 1], "padding": "valid", "data_format": "channels_last", "dilation_rate": [1, 1], "groups": 1, "activation": "linear", "use_bias": true, "kernel_initializer": {"module": "keras.initializers", "class_name": "GlorotUniform", "config": {"seed": null}, "registered_name": null}, "bias_initializer": {"module": "keras.initializers", "class_name": "Zeros", "config": {}, "registered_name": null}, "kernel_regularizer": null, "bias_regularizer": null, "activity_regularizer": null, "kernel_constraint": null, "bias_constraint": null}, "registered_name": null, "build_config": {"input_shape": [null, 16, 16, 256]}, "name": "conv2d_1159", "inbound_nodes": [[["activation_1112", 0, 0, {}]]]}, {"module": "keras.layers", "class_name": "Add", "config": {"name": "add_369", "trainable": false, "dtype": "float32"}, "registered_name": null, "build_config": {"input_shape": [[null, 16, 16, 1024], [null, 16, 16, 1024]]}, "name": "add_369", "inbound_nodes": [[["add_368", 0, 0, {}], ["conv2d_1159", 0, 0, {}]]]}, {"module": "keras.layers", "class_name": "BatchNormalization", "config": {"name": "batch_normalization_1113", "trainable": false, "dtype": "float32", "axis": [3], "momentum": 0.99, "epsilon": 1.001e-05, "center": true, "scale": true, "beta_initializer": {"module": "keras.initializers", "class_name": "Zeros", "config": {}, "registered_name": null}, "gamma_initializer": {"module": "keras.initializers", "class_name": "Ones", "config": {}, "registered_name": null}, "moving_mean_initializer": {"module": "keras.initializers", "class_name": "Zeros", "config": {}, "registered_name": null}, "moving_variance_initializer": {"module": "keras.initializers", "class_name": "Ones", "config": {}, "registered_name": null}, "beta_regularizer": null, "gamma_regularizer": null, "beta_constraint": null, "gamma_constraint": null}, "registered_name": null, "build_config": {"input_shape": [null, 16, 16, 1024]}, "name": "batch_normalization_1113", "inbound_nodes": [[["add_369", 0, 0, {}]]]}, {"module": "keras.layers", "class_name": "Activation", "config": {"name": "activation_1113", "trainable": false, "dtype": "float32", "activation": "relu"}, "registered_name": null, "build_config": {"input_shape": [null, 16, 16, 1024]}, "name": "activation_1113", "inbound_nodes": [[["batch_normalization_1113", 0, 0, {}]]]}, {"module": "keras.layers", "class_name": "Conv2D", "config": {"name": "conv2d_1160", "trainable": false, "dtype": "float32", "filters": 256, "kernel_size": [1, 1], "strides": [1, 1], "padding": "valid", "data_format": "channels_last", "dilation_rate": [1, 1], "groups": 1, "activation": "linear", "use_bias": false, "kernel_initializer": {"module": "keras.initializers", "class_name": "GlorotUniform", "config": {"seed": null}, "registered_name": null}, "bias_initializer": {"module": "keras.initializers", "class_name": "Zeros", "config": {}, "registered_name": null}, "kernel_regularizer": null, "bias_regularizer": null, "activity_regularizer": null, "kernel_constraint": null, "bias_constraint": null}, "registered_name": null, "build_config": {"input_shape": [null, 16, 16, 1024]}, "name": "conv2d_1160", "inbound_nodes": [[["activation_1113", 0, 0, {}]]]}, {"module": "keras.layers", "class_name": "BatchNormalization", "config": {"name": "batch_normalization_1114", "trainable": false, "dtype": "float32", "axis": [3], "momentum": 0.99, "epsilon": 1.001e-05, "center": true, "scale": true, "beta_initializer": {"module": "keras.initializers", "class_name": "Zeros", "config": {}, "registered_name": null}, "gamma_initializer": {"module": "keras.initializers", "class_name": "Ones", "config": {}, "registered_name": null}, "moving_mean_initializer": {"module": "keras.initializers", "class_name": "Zeros", "config": {}, "registered_name": null}, "moving_variance_initializer": {"module": "keras.initializers", "class_name": "Ones", "config": {}, "registered_name": null}, "beta_regularizer": null, "gamma_regularizer": null, "beta_constraint": null, "gamma_constraint": null}, "registered_name": null, "build_config": {"input_shape": [null, 16, 16, 256]}, "name": "batch_normalization_1114", "inbound_nodes": [[["conv2d_1160", 0, 0, {}]]]}, {"module": "keras.layers", "class_name": "Activation", "config": {"name": "activation_1114", "trainable": false, "dtype": "float32", "activation": "relu"}, "registered_name": null, "build_config": {"input_shape": [null, 16, 16, 256]}, "name": "activation_1114", "inbound_nodes": [[["batch_normalization_1114", 0, 0, {}]]]}, {"module": "keras.layers", "class_name": "ZeroPadding2D", "config": {"name": "zero_padding2d_392", "trainable": false, "dtype": "float32", "padding": [[1, 1], [1, 1]], "data_format": "channels_last"}, "registered_name": null, "build_config": {"input_shape": [null, 16, 16, 256]}, "name": "zero_padding2d_392", "inbound_nodes": [[["activation_1114", 0, 0, {}]]]}, {"module": "keras.layers", "class_name": "Conv2D", "config": {"name": "conv2d_1161", "trainable": false, "dtype": "float32", "filters": 256, "kernel_size": [3, 3], "strides": [1, 1], "padding": "valid", "data_format": "channels_last", "dilation_rate": [1, 1], "groups": 1, "activation": "linear", "use_bias": false, "kernel_initializer": {"module": "keras.initializers", "class_name": "GlorotUniform", "config": {"seed": null}, "registered_name": null}, "bias_initializer": {"module": "keras.initializers", "class_name": "Zeros", "config": {}, "registered_name": null}, "kernel_regularizer": null, "bias_regularizer": null, "activity_regularizer": null, "kernel_constraint": null, "bias_constraint": null}, "registered_name": null, "build_config": {"input_shape": [null, 18, 18, 256]}, "name": "conv2d_1161", "inbound_nodes": [[["zero_padding2d_392", 0, 0, {}]]]}, {"module": "keras.layers", "class_name": "BatchNormalization", "config": {"name": "batch_normalization_1115", "trainable": false, "dtype": "float32", "axis": [3], "momentum": 0.99, "epsilon": 1.001e-05, "center": true, "scale": true, "beta_initializer": {"module": "keras.initializers", "class_name": "Zeros", "config": {}, "registered_name": null}, "gamma_initializer": {"module": "keras.initializers", "class_name": "Ones", "config": {}, "registered_name": null}, "moving_mean_initializer": {"module": "keras.initializers", "class_name": "Zeros", "config": {}, "registered_name": null}, "moving_variance_initializer": {"module": "keras.initializers", "class_name": "Ones", "config": {}, "registered_name": null}, "beta_regularizer": null, "gamma_regularizer": null, "beta_constraint": null, "gamma_constraint": null}, "registered_name": null, "build_config": {"input_shape": [null, 16, 16, 256]}, "name": "batch_normalization_1115", "inbound_nodes": [[["conv2d_1161", 0, 0, {}]]]}, {"module": "keras.layers", "class_name": "Activation", "config": {"name": "activation_1115", "trainable": false, "dtype": "float32", "activation": "relu"}, "registered_name": null, "build_config": {"input_shape": [null, 16, 16, 256]}, "name": "activation_1115", "inbound_nodes": [[["batch_normalization_1115", 0, 0, {}]]]}, {"module": "keras.layers", "class_name": "Conv2D", "config": {"name": "conv2d_1162", "trainable": false, "dtype": "float32", "filters": 1024, "kernel_size": [1, 1], "strides": [1, 1], "padding": "valid", "data_format": "channels_last", "dilation_rate": [1, 1], "groups": 1, "activation": "linear", "use_bias": true, "kernel_initializer": {"module": "keras.initializers", "class_name": "GlorotUniform", "config": {"seed": null}, "registered_name": null}, "bias_initializer": {"module": "keras.initializers", "class_name": "Zeros", "config": {}, "registered_name": null}, "kernel_regularizer": null, "bias_regularizer": null, "activity_regularizer": null, "kernel_constraint": null, "bias_constraint": null}, "registered_name": null, "build_config": {"input_shape": [null, 16, 16, 256]}, "name": "conv2d_1162", "inbound_nodes": [[["activation_1115", 0, 0, {}]]]}, {"module": "keras.layers", "class_name": "Add", "config": {"name": "add_370", "trainable": false, "dtype": "float32"}, "registered_name": null, "build_config": {"input_shape": [[null, 16, 16, 1024], [null, 16, 16, 1024]]}, "name": "add_370", "inbound_nodes": [[["add_369", 0, 0, {}], ["conv2d_1162", 0, 0, {}]]]}, {"module": "keras.layers", "class_name": "BatchNormalization", "config": {"name": "batch_normalization_1116", "trainable": false, "dtype": "float32", "axis": [3], "momentum": 0.99, "epsilon": 1.001e-05, "center": true, "scale": true, "beta_initializer": {"module": "keras.initializers", "class_name": "Zeros", "config": {}, "registered_name": null}, "gamma_initializer": {"module": "keras.initializers", "class_name": "Ones", "config": {}, "registered_name": null}, "moving_mean_initializer": {"module": "keras.initializers", "class_name": "Zeros", "config": {}, "registered_name": null}, "moving_variance_initializer": {"module": "keras.initializers", "class_name": "Ones", "config": {}, "registered_name": null}, "beta_regularizer": null, "gamma_regularizer": null, "beta_constraint": null, "gamma_constraint": null}, "registered_name": null, "build_config": {"input_shape": [null, 16, 16, 1024]}, "name": "batch_normalization_1116", "inbound_nodes": [[["add_370", 0, 0, {}]]]}, {"module": "keras.layers", "class_name": "Activation", "config": {"name": "activation_1116", "trainable": false, "dtype": "float32", "activation": "relu"}, "registered_name": null, "build_config": {"input_shape": [null, 16, 16, 1024]}, "name": "activation_1116", "inbound_nodes": [[["batch_normalization_1116", 0, 0, {}]]]}, {"module": "keras.layers", "class_name": "Conv2D", "config": {"name": "conv2d_1163", "trainable": false, "dtype": "float32", "filters": 256, "kernel_size": [1, 1], "strides": [1, 1], "padding": "valid", "data_format": "channels_last", "dilation_rate": [1, 1], "groups": 1, "activation": "linear", "use_bias": false, "kernel_initializer": {"module": "keras.initializers", "class_name": "GlorotUniform", "config": {"seed": null}, "registered_name": null}, "bias_initializer": {"module": "keras.initializers", "class_name": "Zeros", "config": {}, "registered_name": null}, "kernel_regularizer": null, "bias_regularizer": null, "activity_regularizer": null, "kernel_constraint": null, "bias_constraint": null}, "registered_name": null, "build_config": {"input_shape": [null, 16, 16, 1024]}, "name": "conv2d_1163", "inbound_nodes": [[["activation_1116", 0, 0, {}]]]}, {"module": "keras.layers", "class_name": "BatchNormalization", "config": {"name": "batch_normalization_1117", "trainable": false, "dtype": "float32", "axis": [3], "momentum": 0.99, "epsilon": 1.001e-05, "center": true, "scale": true, "beta_initializer": {"module": "keras.initializers", "class_name": "Zeros", "config": {}, "registered_name": null}, "gamma_initializer": {"module": "keras.initializers", "class_name": "Ones", "config": {}, "registered_name": null}, "moving_mean_initializer": {"module": "keras.initializers", "class_name": "Zeros", "config": {}, "registered_name": null}, "moving_variance_initializer": {"module": "keras.initializers", "class_name": "Ones", "config": {}, "registered_name": null}, "beta_regularizer": null, "gamma_regularizer": null, "beta_constraint": null, "gamma_constraint": null}, "registered_name": null, "build_config": {"input_shape": [null, 16, 16, 256]}, "name": "batch_normalization_1117", "inbound_nodes": [[["conv2d_1163", 0, 0, {}]]]}, {"module": "keras.layers", "class_name": "Activation", "config": {"name": "activation_1117", "trainable": false, "dtype": "float32", "activation": "relu"}, "registered_name": null, "build_config": {"input_shape": [null, 16, 16, 256]}, "name": "activation_1117", "inbound_nodes": [[["batch_normalization_1117", 0, 0, {}]]]}, {"module": "keras.layers", "class_name": "ZeroPadding2D", "config": {"name": "zero_padding2d_393", "trainable": false, "dtype": "float32", "padding": [[1, 1], [1, 1]], "data_format": "channels_last"}, "registered_name": null, "build_config": {"input_shape": [null, 16, 16, 256]}, "name": "zero_padding2d_393", "inbound_nodes": [[["activation_1117", 0, 0, {}]]]}, {"module": "keras.layers", "class_name": "Conv2D", "config": {"name": "conv2d_1164", "trainable": false, "dtype": "float32", "filters": 256, "kernel_size": [3, 3], "strides": [1, 1], "padding": "valid", "data_format": "channels_last", "dilation_rate": [1, 1], "groups": 1, "activation": "linear", "use_bias": false, "kernel_initializer": {"module": "keras.initializers", "class_name": "GlorotUniform", "config": {"seed": null}, "registered_name": null}, "bias_initializer": {"module": "keras.initializers", "class_name": "Zeros", "config": {}, "registered_name": null}, "kernel_regularizer": null, "bias_regularizer": null, "activity_regularizer": null, "kernel_constraint": null, "bias_constraint": null}, "registered_name": null, "build_config": {"input_shape": [null, 18, 18, 256]}, "name": "conv2d_1164", "inbound_nodes": [[["zero_padding2d_393", 0, 0, {}]]]}, {"module": "keras.layers", "class_name": "BatchNormalization", "config": {"name": "batch_normalization_1118", "trainable": false, "dtype": "float32", "axis": [3], "momentum": 0.99, "epsilon": 1.001e-05, "center": true, "scale": true, "beta_initializer": {"module": "keras.initializers", "class_name": "Zeros", "config": {}, "registered_name": null}, "gamma_initializer": {"module": "keras.initializers", "class_name": "Ones", "config": {}, "registered_name": null}, "moving_mean_initializer": {"module": "keras.initializers", "class_name": "Zeros", "config": {}, "registered_name": null}, "moving_variance_initializer": {"module": "keras.initializers", "class_name": "Ones", "config": {}, "registered_name": null}, "beta_regularizer": null, "gamma_regularizer": null, "beta_constraint": null, "gamma_constraint": null}, "registered_name": null, "build_config": {"input_shape": [null, 16, 16, 256]}, "name": "batch_normalization_1118", "inbound_nodes": [[["conv2d_1164", 0, 0, {}]]]}, {"module": "keras.layers", "class_name": "Activation", "config": {"name": "activation_1118", "trainable": false, "dtype": "float32", "activation": "relu"}, "registered_name": null, "build_config": {"input_shape": [null, 16, 16, 256]}, "name": "activation_1118", "inbound_nodes": [[["batch_normalization_1118", 0, 0, {}]]]}, {"module": "keras.layers", "class_name": "Conv2D", "config": {"name": "conv2d_1165", "trainable": false, "dtype": "float32", "filters": 1024, "kernel_size": [1, 1], "strides": [1, 1], "padding": "valid", "data_format": "channels_last", "dilation_rate": [1, 1], "groups": 1, "activation": "linear", "use_bias": true, "kernel_initializer": {"module": "keras.initializers", "class_name": "GlorotUniform", "config": {"seed": null}, "registered_name": null}, "bias_initializer": {"module": "keras.initializers", "class_name": "Zeros", "config": {}, "registered_name": null}, "kernel_regularizer": null, "bias_regularizer": null, "activity_regularizer": null, "kernel_constraint": null, "bias_constraint": null}, "registered_name": null, "build_config": {"input_shape": [null, 16, 16, 256]}, "name": "conv2d_1165", "inbound_nodes": [[["activation_1118", 0, 0, {}]]]}, {"module": "keras.layers", "class_name": "Add", "config": {"name": "add_371", "trainable": false, "dtype": "float32"}, "registered_name": null, "build_config": {"input_shape": [[null, 16, 16, 1024], [null, 16, 16, 1024]]}, "name": "add_371", "inbound_nodes": [[["add_370", 0, 0, {}], ["conv2d_1165", 0, 0, {}]]]}, {"module": "keras.layers", "class_name": "BatchNormalization", "config": {"name": "batch_normalization_1119", "trainable": false, "dtype": "float32", "axis": [3], "momentum": 0.99, "epsilon": 1.…
at32"}, {"name": "batch_normalization_1096/moving_variance", "shape": [256], "dtype": "float32"}, {"name": "conv2d_1143/kernel", "shape": [3, 3, 256, 256], "dtype": "float32"}, {"name": "batch_normalization_1097/gamma", "shape": [256], "dtype": "float32"}, {"name": "batch_normalization_1097/beta", "shape": [256], "dtype": "float32"}, {"name": "batch_normalization_1097/moving_mean", "shape": [256], "dtype": "float32"}, {"name": "batch_normalization_1097/moving_variance", "shape": [256], "dtype": "float32"}, {"name": "conv2d_1144/kernel", "shape": [1, 1, 256, 1024], "dtype": "float32"}, {"name": "conv2d_1144/bias", "shape": [1024], "dtype": "float32"}, {"name": "batch_normalization_1098/gamma", "shape": [1024], "dtype": "float32"}, {"name": "batch_normalization_1098/beta", "shape": [1024], "dtype": "float32"}, {"name": "batch_normalization_1098/moving_mean", "shape": [1024], "dtype": "float32"}, {"name": "batch_normalization_1098/moving_variance", "shape": [1024], "dtype": "float32"}, {"name": "conv2d_1145/kernel", "shape": [1, 1, 1024, 256], "dtype": "float32"}, {"name": "batch_normalization_1099/gamma", "shape": [256], "dtype": "float32"}, {"name": "batch_normalization_1099/beta", "shape": [256], "dtype": "float32"}, {"name": "batch_normalization_1099/moving_mean", "shape": [256], "dtype": "float32"}, {"name": "batch_normalization_1099/moving_variance", "shape": [256], "dtype": "float32"}, {"name": "conv2d_1146/kernel", "shape": [3, 3, 256, 256], "dtype": "float32"}, {"name": "batch_normalization_1100/gamma", "shape": [256], "dtype": "float32"}, {"name": "batch_normalization_1100/beta", "shape": [256], "dtype": "float32"}, {"name": "batch_normalization_1100/moving_mean", "shape": [256], "dtype": "float32"}, {"name": "batch_normalization_1100/moving_variance", "shape": [256], "dtype": "float32"}, {"name": "conv2d_1147/kernel", "shape": [1, 1, 256, 1024], "dtype": "float32"}, {"name": "conv2d_1147/bias", "shape": [1024], "dtype": "float32"}, {"name": "batch_normalization_1101/gamma", "shape": [1024], "dtype": "float32"}, {"name": "batch_normalization_1101/beta", "shape": [1024], "dtype": "float32"}, {"name": "batch_normalization_1101/moving_mean", "shape": [1024], "dtype": "float32"}, {"name": "batch_normalization_1101/moving_variance", "shape": [1024], "dtype": "float32"}, {"name": "conv2d_1148/kernel", "shape": [1, 1, 1024, 256], "dtype": "float32"}, {"name": "batch_normalization_1102/gamma", "shape": [256], "dtype": "float32"}, {"name": "batch_normalization_1102/beta", "shape": [256], "dtype": "float32"}, {"name": "batch_normalization_1102/moving_mean", "shape": [256], "dtype": "float32"}, {"name": "batch_normalization_1102/moving_variance", "shape": [256], "dtype": "float32"}, {"name": "conv2d_1149/kernel", "shape": [3, 3, 256, 256], "dtype": "float32"}, {"name": "batch_normalization_1103/gamma", "shape": [256], "dtype": "float32"}, {"name": "batch_normalization_1103/beta", "shape": [256], "dtype": "float32"}, {"name": "batch_normalization_1103/moving_mean", "shape": [256], "dtype": "float32"}, {"name": "batch_normalization_1103/moving_variance", "shape": [256], "dtype": "float32"}, {"name": "conv2d_1150/kernel", "shape": [1, 1, 256, 1024], "dtype": "float32"}, {"name": "conv2d_1150/bias", "shape": [1024], "dtype": "float32"}, {"name": "batch_normalization_1104/gamma", "shape": [1024], "dtype": "float32"}, {"name": "batch_normalization_1104/beta", "shape": [1024], "dtype": "float32"}, {"name": "batch_normalization_1104/moving_mean", "shape": [1024], "dtype": "float32"}, {"name": "batch_normalization_1104/moving_variance", "shape": [1024], "dtype": "float32"}, {"name": "conv2d_1151/kernel", "shape": [1, 1, 1024, 256], "dtype": "float32"}, {"name": "batch_normalization_1105/gamma", "shape": [256], "dtype": "float32"}, {"name": "batch_normalization_1105/beta", "shape": [256], "dtype": "float32"}, {"name": "batch_normalization_1105/moving_mean", "shape": [256], "dtype": "float32"}, {"name": "batch_normalization_1105/moving_variance", "shape": [256], "dtype": "float32"}, {"name": "conv2d_1152/kernel", "shape": [3, 3, 256, 256], "dtype": "float32"}, {"name": "batch_normalization_1106/gamma", "shape": [256], "dtype": "float32"}, {"name": "batch_normalization_1106/beta", "shape": [256], "dtype": "float32"}, {"name": "batch_normalization_1106/moving_mean", "shape": [256], "dtype": "float32"}, {"name": "batch_normalization_1106/moving_variance", "shape": [256], "dtype": "float32"}, {"name": "conv2d_1153/kernel", "shape": [1, 1, 256, 1024], "dtype": "float32"}, {"name": "conv2d_1153/bias", "shape": [1024], "dtype": "float32"}, {"name": "batch_normalization_1107/gamma", "shape": [1024], "dtype": "float32"}, {"name": "batch_normalization_1107/beta", "shape": [1024], "dtype": "float32"}, {"name": "batch_normalization_1107/moving_mean", "shape": [1024], "dtype": "float32"}, {"name": "batch_normalization_1107/moving_variance", "shape": [1024], "dtype": "float32"}, {"name": "conv2d_1154/kernel", "shape": [1, 1, 1024, 256], "dtype": "float32"}, {"name": "batch_normalization_1108/gamma", "shape": [256], "dtype": "float32"}, {"name": "batch_normalization_1108/beta", "shape": [256], "dtype": "float32"}, {"name": "batch_normalization_1108/moving_mean", "shape": [256], "dtype": "float32"}, {"name": "batch_normalization_1108/moving_variance", "shape": [256], "dtype": "float32"}, {"name": "conv2d_1155/kernel", "shape": [3, 3, 256, 256], "dtype": "float32"}, {"name": "batch_normalization_1109/gamma", "shape": [256], "dtype": "float32"}, {"name": "batch_normalization_1109/beta", "shape": [256], "dtype": "float32"}, {"name": "batch_normalization_1109/moving_mean", "shape": [256], "dtype": "float32"}, {"name": "batch_normalization_1109/moving_variance", "shape": [256], "dtype": "float32"}, {"name": "conv2d_1156/kernel", "shape": [1, 1, 256, 1024], "dtype": "float32"}, {"name": "conv2d_1156/bias", "shape": [1024], "dtype": "float32"}, {"name": "batch_normalization_1110/gamma", "shape": [1024], "dtype": "float32"}, {"name": "batch_normalization_1110/beta", "shape": [1024], "dtype": "float32"}, {"name": "batch_normalization_1110/moving_mean", "shape": [1024], "dtype": "float32"}, {"name": "batch_normalization_1110/moving_variance", "shape": [1024], "dtype": "float32"}, {"name": "conv2d_1157/kernel", "shape": [1, 1, 1024, 256], "dtype": "float32"}, {"name": "batch_normalization_1111/gamma", "shape": [256], "dtype": "float32"}, {"name": "batch_normalization_1111/beta", "shape": [256], "dtype": "float32"}, {"name": "batch_normalization_1111/moving_mean", "shape": [256], "dtype": "float32"}, {"name": "batch_normalization_1111/moving_variance", "shape": [256], "dtype": "float32"}, {"name": "conv2d_1158/kernel", "shape": [3, 3, 256, 256], "dtype": "float32"}, {"name": "batch_normalization_1112/gamma", "shape": [256], "dtype": "float32"}, {"name": "batch_normalization_1112/beta", "shape": [256], "dtype": "float32"}, {"name": "batch_normalization_1112/moving_mean", "shape": [256], "dtype": "float32"}, {"name": "batch_normalization_1112/moving_variance", "shape": [256], "dtype": "float32"}, {"name": "conv2d_1159/kernel", "shape": [1, 1, 256, 1024], "dtype": "float32"}, {"name": "conv2d_1159/bias", "shape": [1024], "dtype": "float32"}, {"name": "batch_normalization_1113/gamma", "shape": [1024], "dtype": "float32"}, {"name": "batch_normalization_1113/beta", "shape": [1024], "dtype": "float32"}, {"name": "batch_normalization_1113/moving_mean", "shape": [1024], "dtype": "float32"}, {"name": "batch_normalization_1113/moving_variance", "shape": [1024], "dtype": "float32"}, {"name": "conv2d_1160/kernel", "shape": [1, 1, 1024, 256], "dtype": "float32"}, {"name": "batch_normalization_1114/gamma", "shape": [256], "dtype": "float32"}, {"name": "batch_normalization_1114/beta", "shape": [256], "dtype": "float32"}, {"name": "batch_normalization_1114/moving_mean", "shape": [256], "dtype": "float32"}, {"name": "batch_normalization_1114/moving_variance", "shape": [256], "dtype": "float32"}, {"name": "conv2d_1161/kernel", "shape": [3, 3, 256, 256], "dtype": "float32"}, {"name": "batch_normalization_1115/gamma", "shape": [256], "dtype": "float32"}, {"name": "batch_normalization_1115/beta", "shape": [256], "dtype": "float32"}, {"name": "batch_normalization_1115/moving_mean", "shape": [256], "dtype": "float32"}, {"name": "batch_normalization_1115/moving_variance", "shape": [256], "dtype": "float32"}, {"name": "conv2d_1162/kernel", "shape": [1, 1, 256, 1024], "dtype": "float32"}, {"name": "conv2d_1162/bias", "shape": [1024], "dtype": "float32"}, {"name": "batch_normalization_1116/gamma", "shape": [1024], "dtype": "float32"}, {"name": "batch_normalization_1116/beta", "shape": [1024], "dtype": "float32"}, {"name": "batch_normalization_1116/moving_mean", "shape": [1024], "dtype": "float32"}, {"name": "batch_normalization_1116/moving_variance", "shape": [1024], "dtype": "float32"}, {"name": "conv2d_1163/kernel", "shape": [1, 1, 1024, 256], "dtype": "float32"}, {"name": "batch_normalization_1117/gamma", "shape": [256], "dtype": "float32"}, {"name": "batch_normalization_1117/beta", "shape": [256], "dtype": "float32"}, {"name": "batch_normalization_1117/moving_mean", "shape": [256], "dtype": "float32"}, {"name": "batch_normalization_1117/moving_variance", "shape": [256], "dtype": "float32"}, {"name": "conv2d_1164/kernel", "shape": [3, 3, 256, 256], "dtype": "float32"}, {"name": "batch_normalization_1118/gamma", "shape": [256], "dtype": "float32"}, {"name": "batch_normalization_1118/beta", "shape": [256], "dtype": "float32"}, {"name": "batch_normalization_1118/moving_mean", "shape": [256], "dtype": "float32"}, {"name": "batch_normalization_1118/moving_variance", "shape": [256], "dtype": "float32"}, {"name": "conv2d_1165/kernel", "shape": [1, 1, 256, 1024], "dtype": "float32"}, {"name": "conv2d_1165/bias", "shape": [1024], "dtype": "float32"}, {"name": "batch_normalization_1119/gamma", "shape": [1024], "dtype": "float32"}, {"name": "batch_normalization_1119/beta", "shape": [1024], "dtype": "float32"}, {"name": "batch_normalization_1119/moving_mean", "shape": [1024], "dtype": "float32"}, {"name": "batch_normalization_1119/moving_variance", "shape": [1024], "dtype": "float32"}, {"name": "conv2d_1166/kernel", "shape": [1, 1, 1024, 256], "dtype": "float32"}, {"name": "batch_normalization_1120/gamma", "shape": [256], "dtype": "float32"}, {"name": "batch_normalization_1120/beta", "shape": [256], "dtype": "float32"}, {"name": "batch_normalization_1120/moving_mean", "shape": [256], "dtype": "float32"}, {"name": "batch_normalization_1120/moving_variance", "shape": [256], "dtype": "float32"}, {"name": "conv2d_1167/kernel", "shape": [3, 3, 256, 256], "dtype": "float32"}, {"name": "batch_normalization_1121/gamma", "shape": [256], "dtype": "float32"}, {"name": "batch_normalization_1121/beta", "shape": [256], "dtype": "float32"}, {"name": "batch_normalization_1121/moving_mean", "shape": [256], "dtype": "float32"}, {"name": "batch_normalization_1121/moving_variance", "shape": [256], "dtype": "float32"}, {"name": "conv2d_1168/kernel", "shape": [1, 1, 256, 1024], "dtype": "float32"}, {"name": "conv2d_1168/bias", "shape": [1024], "dtype": "float32"}, {"name": "batch_normalization_1122/gamma", "shape": [1024], "dtype": "float32"}, {"name": "batch_normalization_1122/beta", "shape": [1024], "dtype": "float32"}, {"name": "batch_normalization_1122/moving_mean", "shape": [1024], "dtype": "float32"}, {"name": "batch_normalization_1122/moving_variance", "shape": [1024], "dtype": "float32"}, {"name": "conv2d_1169/kernel", "shape": [1, 1, 1024, 256], "dtype": "float32"}, {"name": "batch_normalization_1123/gamma", "shape": [256], "dtype": "float32"}, {"name": "batch_normalization_1123/beta", "shape": [256], "dtype": "float32"}, {"name": "batch_normalization_1123/moving_mean", "shape": [256], "dtype": "float32"}, {"name": "batch_normalization_1123/moving_variance", "shape": [256], "dtype": "float32"}, {"name": "conv2d_1170/kernel", "shape": [3, 3, 256, 256], "dtype": "float32"}, {"name": "batch_normalization_1124/gamma", "shape": [256], "dtype": "float32"}, {"name": "batch_normalization_1124/beta", "shape": [256], "dtype": "float32"}, {"name": "batch_normalization_1124/moving_mean", "shape": [256], "dtype": "float32"}, {"name": "batch_normalization_1124/moving_variance", "shape": [256], "dtype": "float32"}, {"name": "conv2d_1171/kernel", "shape": [1, 1, 256, 1024], "dtype": "float32"}, {"name": "conv2d_1171/bias", "shape": [1024], "dtype": "float32"}, {"name": "batch_normalization_1125/gamma", "shape": [1024], "dtype": "float32"}, {"name": "batch_normalization_1125/beta", "shape": [1024], "dtype": "float32"}, {"name": "batch_normalization_1125/moving_mean", "shape": [1024], "dtype": "float32"}, {"name": "batch_normalization_1125/moving_variance", "shape": [1024], "dtype": "float32"}, {"name": "conv2d_1172/kernel", "shape": [1, 1, 1024, 256], "dtype": "float32"}, {"name": "batch_normalization_1126/gamma", "shape": [256], "dtype": "float32"}, {"name": "batch_normalization_1126/beta", "shape": [256], "dtype": "float32"}, {"name": "batch_normalization_1126/moving_mean", "shape": [256], "dtype": "float32"}, {"name": "batch_normalization_1126/moving_variance", "shape": [256], "dtype": "float32"}, {"name": "conv2d_1173/kernel", "shape": [3, 3, 256, 256], "dtype": "float32"}, {"name": "batch_normalization_1127/gamma", "shape": [256], "dtype": "float32"}, {"name": "batch_normalization_1127/beta", "shape": [256], "dtype": "float32"}, {"name": "batch_normalization_1127/moving_mean", "shape": [256], "dtype": "float32"}, {"name": "batch_normalization_1127/moving_variance", "shape": [256], "dtype": "float32"}, {"name": "conv2d_1174/kernel", "shape": [1, 1, 256, 1024], "dtype": "float32"}, {"name": "conv2d_1174/bias", "shape": [1024], "dtype": "float32"}, {"name": "batch_normalization_1128/gamma", "shape": [1024], "dtype": "float32"}, {"name": "batch_normalization_1128/beta", "shape": [1024], "dtype": "float32"}, {"name": "batch_normalization_1128/moving_mean", "shape": [1024], "dtype": "float32"}, {"name": "batch_normalization_1128/moving_variance", "shape": [1024], "dtype": "float32"}, {"name": "conv2d_1175/kernel", "shape": [1, 1, 1024, 256], "dtype": "float32"}, {"name": "batch_normalization_1129/gamma", "shape": [256], "dtype": "float32"}, {"name": "batch_normalization_1129/beta", "shape": [256], "dtype": "float32"}, {"name": "batch_normalization_1129/moving_mean", "shape": [256], "dtype": "float32"}, {"name": "batch_normalization_1129/moving_variance", "shape": [256], "dtype": "float32"}, {"name": "conv2d_1176/kernel", "shape": [3, 3, 256, 256], "dtype": "float32"}, {"name": "batch_normalization_1130/gamma", "shape": [256], "dtype": "float32"}, {"name": "batch_normalization_1130/beta", "shape": [256], "dtype": "float32"}, {"name": "batch_normalization_1130/moving_mean", "shape": [256], "dtype": "float32"}, {"name": "batch_normalization_1130/moving_variance", "shape": [256], "dtype": "float32"}, {"name": "conv2d_1177/kernel", "shape": [1, 1, 256, 1024], "dtype": "float32"}, {"name": "conv2d_1177/bias", "shape": [1024], "dtype": "float32"}, {"name": "batch_normalization_1131/gamma", "shape": [1024], "dtype": "float32"}, {"name": "batch_normalization_1131/beta", "shape": [1024], "dtype": "float32"}, {"name": "batch_normalization_1131/moving_mean", "shape": [1024], "dtype": "float32"}, {"name": "batch_normalization_1131/moving_variance", "shape": [1024], "dtype": "float32"}, {"name": "conv2d_1178/kernel", "shape": [1, 1, 1024, 256], "dtype": "float32"}, {"name": "batch_normalization_1132/gamma", "shape": [256], "dtype": "float32"}, {"name": "batch_normalization_1132/beta", "shape": [256], "dtype": "float32"}, {"name": "batch_normalization_1132/moving_mean", "shape": [256], "dtype": "float32"}, {"name": "batch_normalization_1132/moving_variance", "shape": [256], "dtype": "float32"}, {"name": "conv2d_1179/kernel", "shape": [3, 3, 256, 256], "dtype": "float32"}, {"name": "batch_normalization_1133/gamma", "shape": [256], "dtype": "float32"}, {"name": "batch_normalization_1133/beta", "shape": [256], "dtype": "float32"}, {"name": "batch_normalization_1133/moving_mean", "shape": [256], "dtype": "float32"}, {"name": "batch_normalization_1133/moving_variance", "shape": [256], "dtype": "float32"}, {"name": "conv2d_1180/kernel", "shape": [1, 1, 256, 1024], "dtype": "float32"}, {"name": "conv2d_1180/bias", "shape": [1024], "dtype": "float32"}, {"name": "batch_normalization_1134/gamma", "shape": [1024], "dtype": "float32"}, {"name": "batch_normalization_1134/beta", "shape": [1024], "dtype": "float32"}, {"name": "batch_normalization_1134/moving_mean", "shape": [1024], "dtype": "float32"}, {"name": "batch_normalization_1134/moving_variance", "shape": [1024], "dtype": "float32"}, {"name": "conv2d_1181/kernel", "shape": [1, 1, 1024, 256], "dtype": "float32"}, {"name": "batch_normalization_1135/gamma", "shape": [256], "dtype": "float32"}, {"name": "batch_normalization_1135/beta", "shape": [256], "dtype": "float32"}, {"name": "batch_normalization_1135/moving_mean", "shape": [256], "dtype": "float32"}, {"name": "batch_normalization_1135/moving_variance", "shape": [256], "dtype": "float32"}, {"name": "conv2d_1182/kernel", "shape": [3, 3, 256, 256], "dtype": "float32"}, {"name": "batch_normalization_1136/gamma", "shape": [256], "dtype": "float32"}, {"name": "batch_normalization_1136/beta", "shape": [256], "dtype": "float32"}, {"name": "batch_normalization_1136/moving_mean", "shape": [256], "dtype": "float32"}, {"name": "batch_normalization_1136/moving_variance", "shape": [256], "dtype": "float32"}, {"name": "conv2d_1183/kernel", "shape": [1, 1, 256, 1024], "dtype": "float32"}, {"name": "conv2d_1183/bias", "shape": [1024], "dtype": "float32"}, {"name": "batch_normalization_1137/gamma", "shape": [1024], "dtype": "float32"}, {"name": "batch_normalization_1137/beta", "shape": [1024], "dtype": "float32"}, {"name": "batch_normalization_1137/moving_mean", "shape": [1024], "dtype": "float32"}, {"name": "batch_normalization_1137/moving_variance", "shape": [1024], "dtype": "float32"}, {"name": "conv2d_1184/kernel", "shape": [1, 1, 1024, 256], "dtype": "float32"}, {"name": "batch_normalization_1138/gamma", "shape": [256], "dtype": "float32"}, {"name": "batch_normalization_1138/beta", "shape": [256], "dtype": "float32"}, {"name": "batch_normalization_1138/moving_mean", "shape": [256], "dtype": "float32"}, {"name": "batch_normalization_1138/moving_variance", "shape": [256], "dtype": "float32"}, {"name": "conv2d_1185/kernel", "shape": [3, 3, 256, 256], "dtype": "float32"}, {"name": "batch_normalization_1139/gamma", "shape": [256], "dtype": "float32"}, {"name": "batch_normalization_1139/beta", "shape": [256], "dtype": "float32"}, {"name": "batch_normalization_1139/moving_mean", "shape": [256], "dtype": "float32"}, {"name": "batch_normalization_1139/moving_variance", "shape": [256], "dtype": "float32"}, {"name": "conv2d_1186/kernel", "shape": [1, 1, 256, 1024], "dtype": "float32"}, {"name": "conv2d_1186/bias", "shape": [1024], "dtype": "float32"}, {"name": "batch_normalization_1140/gamma", "shape": [1024], "dtype": "float32"}, {"name": "batch_normalization_1140/beta", "shape": [1024], "dtype": "float32"}, {"name": "batch_normalization_1140/moving_mean", "shape": [1024], "dtype": "float32"}, {"name": "batch_normalization_1140/moving_variance", "shape": [1024], "dtype": "float32"}, {"name": "conv2d_1187/kernel", "shape": [1, 1, 1024, 256], "dtype": "float32"}, {"name": "batch_normalization_1141/gamma", "shape": [256], "dtype": "float32"}, {"name": "batch_normalization_1141/beta", "shape": [256], "dtype": "float32"}, {"name": "batch_normalization_1141/moving_mean", "shape": [256], "dtype": "float32"}, {"name": "batch_normalization_1141/moving_variance", "shape": [256], "dtype": "float32"}, {"name": "conv2d_1188/kernel", "shape": [3, 3, 256, 256], "dtype": "float32"}, {"name": "batch_normalization_1142/gamma", "shape": [256], "dtype": "float32"}, {"name": "batch_normalization_1142/beta", "shape": [256], "dtype": "float32"}, {"name": "batch_normalization_1142/moving_mean", "shape": [256], "dtype": "float32"}, {"name": "batch_normalization_1142/moving_variance", "shape": [256], "dtype": "float32"}, {"name": "conv2d_1189/kernel", "shape": [1, 1, 256, 1024], "dtype": "float32"}, {"name": "conv2d_1189/bias", "shape": [1024], "dtype": "float32"}, {"name": "batch_normalization_1143/gamma", "shape": [1024], "dtype": "float32"}, {"name": "batch_normalization_1143/beta", "shape": [1024], "dtype": "float32"}, {"name": "batch_normalization_1143/moving_mean", "shape": [1024], "dtype": "float32"}, {"name": "batch_normalization_1143/moving_variance", "shape": [1024], "dtype": "float32"}, {"name": "conv2d_1190/kernel", "shape": [1, 1, 1024, 256], "dtype": "float32"}, {"name": "batch_normalization_1144/gamma", "shape": [256], "dtype": "float32"}, {"name": "batch_normalization_1144/beta", "shape": [256], "dtype": "float32"}, {"name": "batch_normalization_1144/moving_mean", "shape": [256], "dtype": "float32"}, {"name": "batch_normalization_1144/moving_variance", "shape": [256], "dtype": "float32"}, {"name": "conv2d_1191/kernel", "shape": [3, 3, 256, 256], "dtype": "float32"}, {"name": "batch_normalization_1145/gamma", "shape": [256], "dtype": "float32"}, {"name": "batch_normalization_1145/beta", "shape": [256], "dtype": "float32"}, {"name": "batch_normalization_1145/moving_mean", "shape": [256], "dtype": "float32"}, {"name": "batch_normalization_1145/moving_variance", "shape": [256], "dtype": "float32"}, {"name": "conv2d_1192/kernel", "shape": [1, 1, 256, 1024], "dtype": "float32"}, {"name": "conv2d_1192/bias", "shape": [1024], "dtype": "float32"}, {"name": "batch_normalization_1146/gamma", "shape": [1024], "dtype": "float32"}, {"name": "batch_normalization_1146/beta", "shape": [1024], "dtype": "float32"}, {"name": "batch_normalization_1146/moving_mean", "shape": [1024], "dtype": "float32"}, {"name": "batch_normalization_1146/moving_variance", "shape": [1024], "dtype": "float32"}, {"name": "conv2d_1193/kernel", "shape": [1, 1, 1024, 256], "dtype": "float32"}, {"name": "batch_normalization_1147/gamma", "shape": [256], "dtype": "float32"}, {"name": "batch_normalization_1147/beta", "shape": [256], "dtype": "float32"}, {"name": "batch_normalization_1147/moving_mean", "shape": [256], "dtype": "float32"}, {"name": "batch_normalization_1147/moving_variance", "shape": [256], "dtype": "float32"}, {"name": "conv2d_1194/kernel", "shape": [3, 3, 256, 256], "dtype": "float32"}, {"name": "batch_normalization_1148/gamma", "shape": [256], "dtype": "float32"}, {"name": "batch_normalization_1148/beta", "shape": [256], "dtype": "float32"}, {"name": "batch_normalization_1148/moving_mean", "shape": [256], "dtype": "float32"}, {"name": "batch_normalization_1148/moving_variance", "shape": [256], "dtype": "float32"}, {"name": "conv2d_1195/kernel", "shape": [1, 1, 256, 1024], "dtype": "float32"}, {"name": "conv2d_1195/bias", "shape": [1024], "dtype": "float32"}, {"name": "batch_normalization_1149/gamma", "shape": [1024], "dtype": "float32"}, {"name": "batch_normalization_1149/beta", "shape": [1024], "dtype": "float32"}, {"name": "batch_normalization_1149/moving_mean", "shape": [1024], "dtype": "float32"}, {"name": "batch_normalization_1149/moving_variance", "shape": [1024], "dtype": "float32"}, {"name": "conv2d_1196/kernel", "shape": [1, 1, 1024, 256], "dtype": "float32"}, {"name": "batch_normalization_1150/gamma", "shape": [256], "dtype": "float32"}, {"name": "batch_normalization_1150/beta", "shape": [256], "dtype": "float32"}, {"name": "batch_normalization_1150/moving_mean", "shape": [256], "dtype": "float32"}, {"name": "batch_normalization_1150/moving_variance", "shape": [256], "dtype": "float32"}, {"name": "conv2d_1197/kernel", "shape": [3, 3, 256, 256], "dtype": "float32"}, {"name": "batch_normalization_1151/gamma", "shape": [256], "dtype": "float32"}, {"name": "batch_normalization_1151/beta", "shape": [256], "dtype": "float32"}, {"name": "batch_normalization_1151/moving_mean", "shape": [256], "dtype": "float32"}, {"name": "batch_normalization_1151/moving_variance", "shape": [256], "dtype": "float32"}, {"name": "conv2d_1198/kernel", "shape": [1, 1, 256, 1024], "dtype": "float32"}, {"name": "conv2d_1198/bias", "shape": [1024], "dtype": "float32"}, {"name": "batch_normalization_1152/gamma", "shape": [1024], "dtype": "float32"}, {"name": "batch_normalization_1152/beta", "shape": [1024], "dtype": "float32"}, {"name": "batch_normalization_1152/moving_mean", "shape": [1024], "dtype": "float32"}, {"name": "batch_normalization_1152/moving_variance", "shape": [1024], "dtype": "float32"}, {"name": "conv2d_1199/kernel", "shape": [1, 1, 1024, 256], "dtype": "float32"}, {"name": "batch_normalization_1153/gamma", "shape": [256], "dtype": "float32"}, {"name": "batch_normalization_1153/beta", "shape": [256], "dtype": "float32"}, {"name": "batch_normalization_1153/moving_mean", "shape": [256], "dtype": "float32"}, {"name": "batch_normalization_1153/moving_variance", "shape": [256], "dtype": "float32"}, {"name": "conv2d_1200/kernel", "shape": [3, 3, 256, 256], "dtype": "float32"}, {"name": "batch_normalization_1154/gamma", "shape": [256], "dtype": "float32"}, {"name": "batch_normalization_1154/beta", "shape": [256], "dtype": "float32"}, {"name": "batch_normalization_1154/moving_mean", "shape": [256], "dtype": "float32"}, {"name": "batch_normalization_1154/moving_variance", "shape": [256], "dtype": "float32"}, {"name": "conv2d_1201/kernel", "shape": [1, 1, 256, 1024], "dtype": "float32"}, {"name": "conv2d_1201/bias", "shape": [1024], "dtype": "float32"}, {"name": "batch_normalization_1155/gamma", "shape": [1024], "dtype": "float32"}, {"name": "batch_normalization_1155/beta", "shape": [1024], "dtype": "float32"}, {"name": "batch_normalization_1155/moving_mean", "shape": [1024], "dtype": "float32"}, {"name": "batch_normalization_1155/moving_variance", "shape": [1024], "dtype": "float32"}, {"name": "conv2d_1202/kernel", "shape": [1, 1, 1024, 256], "dtype": "float32"}, {"name": "batch_normalization_1156/gamma", "shape": [256], "dtype": "float32"}, {"name": "batch_normalization_1156/beta", "shape": [256], "dtype": "float32"}, {"name": "batch_normalization_1156/moving_mean", "shape": [256], "dtype": "float32"}, {"name": "batch_normalization_1156/moving_variance", "shape": [256], "dtype": "float32"}, {"name": "conv2d_1203/kernel", "shape": [3, 3, 256, 256], "dtype": "float32"}, {"name": "batch_normalization_1157/gamma", "shape": [256], "dtype": "float32"}, {"name": "batch_normalization_1157/beta", "shape": [256], "dtype": "float32"}, {"name": "batch_normalization_1157/moving_mean", "shape": [256], "dtype": "float32"}, {"name": "batch_normalization_1157/moving_variance", "shape": [256], "dtype": "float32"}, {"name": "conv2d_1204/kernel", "shape": [1, 1, 256, 1024], "dtype": "float32"}, {"name": "conv2d_1204/bias", "shape": [1024], "dtype": "float32"}, {"name": "batch_normalization_1158/gamma", "shape": [1024], "dtype": "float32"}, {"name": "batch_normalization_1158/beta", "shape": [1024], "dtype": "float32"}, {"name": "batch_normalization_1158/moving_mean", "shape": [1024], "dtype": "float32"}, {"name": "batch_normalization_1158/moving_variance", "shape": [1024], "dtype": "float32"}, {"name": "conv2d_1205/kernel", "shape": [1, 1, 1024, 256], "dtype": "float32"}, {"name": "batch_normalization_1159/gamma", "shape": [256], "dtype": "float32"}, {"name": "batch_normalization_1159/beta", "shape": [256], "dtype": "float32"}, {"name": "batch_normalization_1159/moving_mean", "shape": [256], "dtype": "float32"}, {"name": "batch_normalization_1159/moving_variance", "shape": [256], "dtype": "float32"}, {"name": "conv2d_1206/kernel", "shape": [3, 3, 256, 256], "dtype": "float32"}, {"name": "batch_normalization_1160/gamma", "shape": [256], "dtype": "float32"}, {"name": "batch_normalization_1160/beta", "shape": [256], "dtype": "float32"}, {"name": "batch_normalization_1160/moving_mean", "shape": [256], "dtype": "float32"}, {"name": "batch_normalization_1160/moving_variance", "shape": [256], "dtype": "float32"}, {"name": "conv2d_1207/kernel", "shape": [1, 1, 256, 1024], "dtype": "float32"}, {"name": "conv2d_1207/bias", "shape": [1024], "dtype": "float32"}, {"name": "batch_normalization_1161/gamma", "shape": [1024], "dtype": "float32"}, {"name": "batch_normalization_1161/beta", "shape": [1024], "dtype": "float32"}, {"name": "batch_normalization_1161/moving_mean", "shape": [1024], "dtype": "float32"}, {"name": "batch_normalization_1161/moving_variance", "shape": [1024], "dtype": "float32"}, {"name": "conv2d_1208/kernel", "shape": [1, 1, 1024, 256], "dtype": "float32"}, {"name": "batch_normalization_1162/gamma", "shape": [256], "dtype": "float32"}, {"name": "batch_normalization_1162/beta", "shape": [256], "dtype": "float32"}, {"name": "batch_normalization_1162/moving_mean", "shape": [256], "dtype": "float32"}, {"name": "batch_normalization_1162/moving_variance", "shape": [256], "dtype": "float32"}, {"name": "conv2d_1209/kernel", "shape": [3, 3, 256, 256], "dtype": "float32"}, {"name": "batch_normalization_1163/gamma", "shape": [256], "dtype": "float32"}, {"name": "batch_normalization_1163/beta", "shape": [256], "dtype": "float32"}, {"name": "batch_normalization_1163/moving_mean", "shape": [256], "dtype": "float32"}, {"name": "batch_normalization_1163/moving_variance", "shape": [256], "dtype": "float32"}, {"name": "conv2d_1210/kernel", "shape": [1, 1, 256, 1024], "dtype": "float32"}, {"name": "conv2d_1210/bias", "shape": [1024], "dtype": "float32"}, {"name": "batch_normalization_1164/gamma", "shape": [1024], "dtype": "float32"}, {"name": "batch_normalization_1164/beta", "shape": [1024], "dtype": "float32"}, {"name": "batch_normalization_1164/moving_mean", "shape": [1024], "dtype": "float32"}, {"name": "batch_normalization_1164/moving_variance", "shape": [1024], "dtype": "float32"}, {"name": "conv2d_1211/kernel", "shape": [1, 1, 1024, 256], "dtype": "float32"}, {"name": "batch_normalization_1165/gamma", "shape": [256], "dtype": "float32"}, {"name": "batch_normalization_1165/beta", "shape": [256], "dtype": "float32"}, {"name": "batch_normalization_1165/moving_mean", "shape": [256], "dtype": "float32"}, {"name": "batch_normalization_1165/moving_variance", "shape": [256], "dtype": "float32"}, {"name": "conv2d_1212/kernel", "shape": [3, 3, 256, 256], "dtype": "float32"}, {"name": "batch_normalization_1166/gamma", "shape": [256], "dtype": "float32"}, {"name": "batch_normalization_1166/beta", "shape": [256], "dtype": "float32"}, {"name": "batch_normalization_1166/moving_mean", "shape": [256], "dtype": "float32"}, {"name": "batch_normalization_1166/moving_variance", "shape": [256], "dtype": "float32"}, {"name": "conv2d_1213/kernel", "shape": [1, 1, 256, 1024], "dtype": "float32"}, {"name": "conv2d_1213/bias", "shape": [1024], "dtype": "float32"}, {"name": "batch_normalization_1167/gamma", "shape": [1024], "dtype": "float32"}, {"name": "batch_normalization_1167/beta", "shape": [1024], "dtype": "float32"}, {"name": "batch_normalization_1167/moving_mean", "shape": [1024], "dtype": "float32"}, {"name": "batch_normalization_1167/moving_variance", "shape": [1024], "dtype": "float32"}, {"name": "conv2d_1214/kernel", "shape": [1, 1, 1024, 256], "dtype": "float32"}, {"name": "batch_normalization_1168/gamma", "shape": [256], "dtype": "float32"}, {"name": "batch_normalization_1168/beta", "shape": [256], "dtype": "float32"}, {"name": "batch_normalization_1168/moving_mean", "shape": [256], "dtype": "float32"}, {"name": "batch_normalization_1168/moving_variance", "shape": [256], "dtype": "float32"}, {"name": "conv2d_1215/kernel", "shape": [3, 3, 256, 256], "dtype": "float32"}, {"name": "batch_normalization_1169/gamma", "shape": [256], "dtype": "float32"}, {"name": "batch_normalization_1169/beta", "shape": [256], "dtype": "float32"}, {"name": "batch_normalization_1169/moving_mean", "shape": [256], "dtype": "float32"}, {"name": "batch_normalization_1169/moving_variance", "shape": [256], "dtype": "float32"}, {"name": "conv2d_1216/kernel", "shape": [1, 1, 256, 1024], "dtype": "float32"}, {"name": "conv2d_1216/bias", "shape": [1024], "dtype": "float32"}, {"name": "batch_normalization_1170/gamma", "shape": [1024], "dtype": "float32"}, {"name": "batch_normalization_1170/beta", "shape": [1024], "dtype": "float32"}, {"name": "batch_normalization_1170/moving_mean", "shape": [1024], "dtype": "float32"}, {"name": "batch_normalization_1170/moving_variance", "shape": [1024], "dtype": "float32"}, {"name": "conv2d_1217/kernel", "shape": [1, 1, 1024, 256], "dtype": "float32"}, {"name": "batch_normalization_1171/gamma", "shape": [256], "dtype": "float32"}, {"name": "batch_normalization_1171/beta", "shape": [256], "dtype": "float32"}, {"name": "batch_normalization_1171/moving_mean", "shape": [256], "dtype": "float32"}, {"name": "batch_normalization_1171/moving_variance", "shape": [256], "dtype": "float32"}, {"name": "conv2d_1218/kernel", "shape": [3, 3, 256, 256], "dtype": "float32"}, {"name": "batch_normalization_1172/gamma", "shape": [256], "dtype": "float32"}, {"name": "batch_normalization_1172/beta", "shape": [256], "dtype": "float32"}, {"name": "batch_normalization_1172/moving_mean", "shape": [256], "dtype": "float32"}, {"name": "batch_normalization_1172/moving_variance", "shape": [256], "dtype": "float32"}, {"name": "conv2d_1219/kernel", "shape": [1, 1, 256, 1024], "dtype": "float32"}, {"name": "conv2d_1219/bias", "shape": [1024], "dtype": "float32"}, {"name": "batch_normalization_1173/gamma", "shape": [1024], "dtype": "float32"}, {"name": "batch_normalization_1173/beta", "shape": [1024], "dtype": "float32"}, {"name": "batch_normalization_1173/moving_mean", "shape": [1024], "dtype": "float32"}, {"name": "batch_normalization_1173/moving_variance", "shape": [1024], "dtype": "float32"}, {"name": "conv2d_1220/kernel", "shape": [1, 1, 1024, 256], "dtype": "float32"}, {"name": "batch_normalization_1174/gamma", "shape": [256], "dtype": "float32"}, {"name": "batch_normalization_1174/beta", "shape": [256], "dtype": "float32"}, {"name": "batch_normalization_1174/moving_mean", "shape": [256], "dtype": "float32"}, {"name": "batch_normalization_1174/moving_variance", "shape": [256], "dtype": "float32"}, {"name": "conv2d_1221/kernel", "shape": [3, 3, 256, 256], "dtype": "float32"}, {"name": "batch_normalization_1175/gamma", "shape": [256], "dtype": "float32"}, {"name": "batch_normalization_1175/beta", "shape": [256], "dtype": "float32"}, {"name": "batch_normalization_1175/moving_mean", "shape": [256], "dtype": "float32"}, {"name": "batch_normalization_1175/moving_variance", "shape": [256], "dtype": "float32"}, {"name": "conv2d_1222/kernel", "shape": [1, 1, 256, 1024], "dtype": "float32"}, {"name": "conv2d_1222/bias", "shape": [1024], "dtype": "float32"}, {"name": "batch_normalization_1176/gamma", "shape": [1024], "dtype": "float32"}, {"name": "batch_normalization_1176/beta", "shape": [1024], "dtype": "float32"}, {"name": "batch_normalization_1176/moving_mean", "shape": [1024], "dtype": "float32"}, {"name": "batch_normalization_1176/moving_variance", "shape": [1024], "dtype": "float32"}, {"name": "conv2d_1223/kernel", "shape": [1, 1, 1024, 256], "dtype": "float32"}, {"name": "batch_normalization_1177/gamma", "shape": [256], "dtype": "float32"}, {"name": "batch_normalization_1177/beta", "shape": [256], "dtype": "float32"}, {"name": "batch_normalization_1177/moving_mean", "shape": [256], "dtype": "float32"}, {"name": "batch_normalization_1177/moving_variance", "shape": [256], "dtype": "float32"}, {"name": "conv2d_1224/kernel", "shape": [3, 3, 256, 256], "dtype": "float32"}, {"name": "batch_normalization_1178/gamma", "shape": [256], "dtype": "float32"}, {"name": "batch_normalization_1178/beta", "shape": [256], "dtype": "float32"}, {"name": "batch_normalization_1178/moving_mean", "shape": [256], "dtype": "float32"}, {"name": "batch_normalization_1178/moving_variance", "shape": [256], "dtype": "float32"}, {"name": "conv2d_1225/kernel", "shape": [1, 1, 256, 1024], "dtype": "float32"}, {"name": "conv2d_1225/bias", "shape": [1024], "dtype": "float32"}, {"name": "batch_normalization_1179/gamma", "shape": [1024], "dtype": "float32"}, {"name": "batch_normalization_1179/beta", "shape": [1024], "dtype": "float32"}, {"name": "batch_normalization_1179/moving_mean", "shape": [1024], "dtype": "float32"}, {"name": "batch_normalization_1179/moving_variance", "shape": [1024], "dtype": "float32"}, {"name": "conv2d_1226/kernel", "shape": [1, 1, 1024, 256], "dtype": "float32"}, {"name": "batch_normalization_1180/gamma", "shape": [256], "dtype": "float32"}, {"name": "batch_normalization_1180/beta", "shape": [256], "dtype": "float32"}, {"name": "batch_normalization_1180/moving_mean", "shape": [256], "dtype": "float32"}, {"name": "batch_normalization_1180/moving_variance", "shape": [256], "dtype": "float32"}, {"name": "conv2d_1227/kernel", "shape": [3, 3, 256, 256], "dtype": "float32"}, {"name": "batch_normalization_1181/gamma", "shape": [256], "dtype": "float32"}, {"name": "batch_normalization_1181/beta", "shape": [256], "dtype": "float32"}, {"name": "batch_normalization_1181/moving_mean", "shape": [256], "dtype": "float32"}, {"name": "batch_normalization_1181/moving_variance", "shape": [256], "dtype": "float32"}, {"name": "conv2d_1228/kernel", "shape": [1, 1, 256, 1024], "dtype": "float32"}, {"name": "conv2d_1228/bias", "shape": [1024], "dtype": "float32"}, {"name": "batch_normalization_1182/gamma", "shape": [1024], "dtype": "float32"}, {"name": "batch_normalization_1182/beta", "shape": [1024], "dtype": "float32"}, {"name": "batch_normalization_1182/moving_mean", "shape": [1024], "dtype": "float32"}, {"name": "batch_normalization_1182/moving_variance", "shape": [1024], "dtype": "float32"}, {"name": "conv2d_1229/kernel", "shape": [1, 1, 1024, 256], "dtype": "float32"}, {"name": "batch_normalization_1183/gamma", "shape": [256], "dtype": "float32"}, {"name": "batch_normalization_1183/beta", "shape": [256], "dtype": "float32"}, {"name": "batch_normalization_1183/moving_mean", "shape": [256], "dtype": "float32"}, {"name": "batch_normalization_1183/moving_variance", "shape": [256], "dtype": "float32"}, {"name": "conv2d_1230/kernel", "shape": [3, 3, 256, 256], "dtype": "float32"}, {"name": "batch_normalization_1184/gamma", "shape": [256], "dtype": "float32"}, {"name": "batch_normalization_1184/beta", "shape": [256], "dtype": "float32"}, {"name": "batch_normalization_1184/moving_mean", "shape": [256], "dtype": "float32"}, {"name": "batch_normalization_1184/moving_variance", "shape": [256], "dtype": "float32"}, {"name": "conv2d_1231/kernel", "shape": [1, 1, 256, 1024], "dtype": "float32"}, {"name": "conv2d_1231/bias", "shape": [1024], "dtype": "float32"}, {"name": "batch_normalization_1185/gamma", "shape": [1024], "dtype": "float32"}, {"name": "batch_normalization_1185/beta", "shape": [1024], "dtype": "float32"}, {"name": "batch_normalization_1185/moving_mean", "shape": [1024], "dtype": "float32"}, {"name": "batch_normalization_1185/moving_variance", "shape": [1024], "dtype": "float32"}, {"name": "conv2d_1232/kernel", "shape": [1, 1, 1024, 256], "dtype": "float32"}, {"name": "batch_normalization_1186/gamma", "shape": [256], "dtype": "float32"}, {"name": "batch_normalization_1186/beta", "shape": [256], "dtype": "float32"}, {"name": "batch_normalization_1186/moving_mean", "shape": [256], "dtype": "float32"}, {"name": "batch_normalization_1186/moving_variance", "shape": [256], "dtype": "float32"}, {"name": "conv2d_1233/kernel", "shape": [3, 3, 256, 256], "dtype": "float32"}, {"name": "batch_normalization_1187/gamma", "shape": [256], "dtype": "float32"}, {"name": "batch_normalization_1187/beta", "shape": [256], "dtype": "float32"}, {"name": "batch_normalization_1187/moving_mean", "shape": [256], "dtype": "float32"}, {"name": "batch_normalization_1187/moving_variance", "shape": [256], "dtype": "float32"}, {"name": "conv2d_1234/kernel", "shape": [1, 1, 256, 1024], "dtype": "float32"}, {"name": "conv2d_1234/bias", "shape": [1024], "dtype": "float32"}, {"name": "batch_normalization_1188/gamma", "shape": [1024], "dtype": "float32"}, {"name": "batch_normalization_1188/beta", "shape": [1024], "dtype": "float32"}, {"name": "batch_normalization_1188/moving_mean", "shape": [1024], "dtype": "float32"}, {"name": "batch_normalization_1188/moving_variance", "shape": [1024], "dtype": "float32"}, {"name": "conv2d_1235/kernel", "shape": [1, 1, 1024, 256], "dtype": "float32"}, {"name": "batch_normalization_1189/gamma", "shape": [256], "dtype": "float32"}, {"name": "batch_normalization_1189/beta", "shape": [256], "dtype": "float32"}, {"name": "batch_normalization_1189/moving_mean", "shape": [256], "dtype": "float32"}, {"name": "batch_normalization_1189/moving_variance", "shape": [256], "dtype": "float32"}, {"name": "conv2d_1236/kernel", "shape": [3, 3, 256, 256], "dtype": "float32"}, {"name": "batch_normalization_1190/gamma", "shape": [256], "dtype": "float32"}, {"name": "batch_normalization_1190/beta", "shape": [256], "dtype": "float32"}, {"name": "batch_normalization_1190/moving_mean", "shape": [256], "dtype": "float32"}, {"name": "batch_normalization_1190/moving_variance", "shape": [256], "dtype": "float32"}, {"name": "conv2d_1237/kernel", "shape": [1, 1, 256, 1024], "dtype": "float32"}, {"name": "conv2d_1237/bias", "shape": [1024], "dtype": "float32"}, {"name": "batch_normalization_1191/gamma", "shape": [1024], "dtype": "float32"}, {"name": "batch_normalization_1191/beta", "shape": [1024], "dtype": "float32"}, {"name": "batch_normalization_1191/moving_mean", "shape": [1024], "dtype": "float32"}, {"name": "batch_normalization_1191/moving_variance", "shape": [1024], "dtype": "float32"}, {"name": "conv2d_1238/kernel", "shape": [1, 1, 1024, 256], "dtype": "float32"}, {"name": "batch_normalization_1192/gamma", "shape": [256], "dtype": "float32"}, {"name": "batch_normalization_1192/beta", "shape": [256], "dtype": "float32"}, {"name": "batch_normalization_1192/moving_mean", "shape": [256], "dtype": "float32"}, {"name": "batch_normalization_1192/moving_variance", "shape": [256], "dtype": "float32"}, {"name": "conv2d_1239/kernel", "shape": [3, 3, 256, 256], "dtype": "float32"}, {"name": "batch_normalization_1193/gamma", "shape": [256], "dtype": "float32"}, {"name": "batch_normalization_1193/beta", "shape": [256], "dtype": "float32"}, {"name": "batch_normalization_1193/moving_mean", "shape": [256], "dtype": "float32"}, {"name": "batch_normalization_1193/moving_variance", "shape": [256], "dtype": "float32"}, {"name": "conv2d_1240/kernel", "shape": [1, 1, 256, 1024], "dtype": "float32"}, {"name": "conv2d_1240/bias", "shape": [1024], "dtype": "float32"}, {"name": "batch_normalization_1194/gamma", "shape": [1024], "dtype": "float32"}, {"name": "batch_normalization_1194/beta", "shape": [1024], "dtype": "float32"}, {"name": "batch_normalization_1194/moving_mean", "shape": [1024], "dtype": "float32"}, {"name": "batch_normalization_1194/moving_variance", "shape": [1024], "dtype": "float32"}, {"name": "conv2d_1241/kernel", "shape": [1, 1, 1024, 256], "dtype": "float32"}, {"name": "batch_normalization_1195/gamma", "shape": [256], "dtype": "float32"}, {"name": "batch_normalization_1195/beta", "shape": [256], "dtype": "float32"}, {"name": "batch_normalization_1195/moving_mean", "shape": [256], "dtype": "float32"}, {"name": "batch_normalization_1195/moving_variance", "shape": [256], "dtype": "float32"}, {"name": "conv2d_1242/kernel", "shape": [3, 3, 256, 256], "dtype": "float32"}, {"name": "batch_normalization_1196/gamma", "shape": [256], "dtype": "float32"}, {"name": "batch_normalization_1196/beta", "shape": [256], "dtype": "float32"}, {"name": "batch_normalization_1196/moving_mean", "shape": [256], "dtype": "float32"}, {"name": "batch_normalization_1196/moving_variance", "shape": [256], "dtype": "float32"}, {"name": "conv2d_1243/kernel", "shape": [1, 1, 256, 1024], "dtype": "float32"}, {"name": "conv2d_1243/bias", "shape": [1024], "dtype": "float32"}, {"name": "batch_normalization_1197/gamma", "shape": [1024], "dtype": "float32"}, {"name": "batch_normalization_1197/beta", "shape": [1024], "dtype": "float32"}, {"name": "batch_normalization_1197/moving_mean", "shape": [1024], "dtype": "float32"}, {"name": "batch_normalization_1197/moving_variance", "shape": [1024], "dtype": "float32"}, {"name": "conv2d_1244/kernel", "shape": [1, 1, 1024, 256], "dtype": "float32"}, {"name": "batch_normalization_1198/gamma", "shape": [256], "dtype": "float32"}, {"name": "batch_normalization_1198/beta", "shape": [256], "dtype": "float32"}, {"name": "batch_normalization_1198/moving_mean", "shape": [256], "dtype": "float32"}, {"name": "batch_normalization_1198/moving_variance", "shape": [256], "dtype": "float32"}, {"name": "conv2d_1245/kernel", "shape": [3, 3, 256, 256], "dtype": "float32"}, {"name": "batch_normalization_1199/gamma", "shape": [256], "dtype": "float32"}, {"name": "batch_normalization_1199/beta", "shape": [256], "dtype": "float32"}, {"name": "batch_normalization_1199/moving_mean", "shape": [256], "dtype": "float32"}, {"name": "batch_normalization_1199/moving_variance", "shape": [256], "dtype": "float32"}, {"name": "conv2d_1246/kernel", "shape": [1, 1, 256, 1024], "dtype": "float32"}, {"name": "conv2d_1246/bias", "shape": [1024], "dtype": "float32"}, {"name": "batch_normalization_1200/gamma", "shape": [1024], "dtype": "float32"}, {"name": "batch_normalization_1200/beta", "shape": [1024], "dtype": "float32"}, {"name": "batch_normalization_1200/moving_mean", "shape": [1024], "dtype": "float32"}, {"name": "batch_normalization_1200/moving_variance", "shape": [1024], "dtype": "float32"}, {"name": "conv2d_1248/kernel", "shape": [1, 1, 1024, 512], "dtype": "float32"}, {"name": "batch_normalization_1201/gamma", "shape": [512], "dtype": "float32"}, {"name": "batch_normalization_1201/beta", "shape": [512], "dtype": "float32"}, {"name": "batch_normalization_1201/moving_mean", "shape": [512], "dtype": "float32"}, {"name": "batch_normalization_1201/moving_variance", "shape": [512], "dtype": "float32"}, {"name": "conv2d_1249/kernel", "shape": [3, 3, 512, 512], "dtype": "float32"}, {"name": "batch_normalization_1202/gamma", "shape": [512], "dtype": "float32"}, {"name": "batch_normalization_1202/beta", "shape": [512], "dtype": "float32"}, {"name": "batch_normalization_1202/moving_mean", "shape": [512], "dtype": "float32"}, {"name": "batch_normalization_1202/moving_variance", "shape": [512], "dtype": "float32"}, {"name": "conv2d_1247/kernel", "shape": [1, 1, 1024, 2048], "dtype": "float32"}, {"name": "conv2d_1247/bias", "shape": [2048], "dtype": "float32"}, {"name": "conv2d_1250/kernel", "shape": [1, 1, 512, 2048], "dtype": "float32"}, {"name": "conv2d_1250/bias", "shape": [2048], "dtype": "float32"}, {"name": "batch_normalization_1203/gamma", "shape": [2048], "dtype": "float32"}, {"name": "batch_normalization_1203/beta", "shape": [2048], "dtype": "float32"}, {"name": "batch_normalization_1203/moving_mean", "shape": [2048], "dtype": "float32"}, {"name": "batch_normalization_1203/moving_variance", "shape": [2048], "dtype": "float32"}, {"name": "conv2d_1251/kernel", "shape": [1, 1, 2048, 512], "dtype": "float32"}, {"name": "batch_normalization_1204/gamma", "shape": [512], "dtype": "float32"}, {"name": "batch_normalization_1204/beta", "shape": [512], "dtype": "float32"}, {"name": "batch_normalization_1204/moving_mean", "shape": [512], "dtype": "float32"}, {"name": "batch_normalization_1204/moving_variance", "shape": [512], "dtype": "float32"}, {"name": "conv2d_1252/kernel", "shape": [3, 3, 512, 512], "dtype": "float32"}, {"name": "batch_normalization_1205/gamma", "shape": [512], "dtype": "float32"}, {"name": "batch_normalization_1205/beta", "shape": [512], "dtype": "float32"}, {"name": "batch_normalization_1205/moving_mean", "shape": [512], "dtype": "float32"}, {"name": "batch_normalization_1205/moving_variance", "shape": [512], "dtype": "float32"}, {"name": "conv2d_1253/kernel", "shape": [1, 1, 512, 2048], "dtype": "float32"}, {"name": "conv2d_1253/bias", "shape": [2048], "dtype": "float32"}, {"name": "batch_normalization_1206/gamma", "shape": [2048], "dtype": "float32"}, {"name": "batch_normalization_1206/beta", "shape": [2048], "dtype": "float32"}, {"name": "batch_normalization_1206/moving_mean", "shape": [2048], "dtype": "float32"}, {"name": "batch_normalization_1206/moving_variance", "shape": [2048], "dtype": "float32"}, {"name": "conv2d_1254/kernel", "shape": [1, 1, 2048, 512], "dtype": "float32"}, {"name": "batch_normalization_1207/gamma", "shape": [512], "dtype": "float32"}, {"name": "batch_normalization_1207/beta", "shape": [512], "dtype": "float32"}, {"name": "batch_normalization_1207/moving_mean", "shape": [512], "dtype": "float32"}, {"name": "batch_normalization_1207/moving_variance", "shape": [512], "dtype": "float32"}, {"name": "conv2d_1255/kernel", "shape": [3, 3, 512, 512], "dtype": "float32"}, {"name": "batch_normalization_1208/gamma", "shape": [512], "dtype": "float32"}, {"name": "batch_normalization_1208/beta", "shape": [512], "dtype": "float32"}, {"name": "batch_normalization_1208/moving_mean", "shape": [512], "dtype": "float32"}, {"name": "batch_normalization_1208/moving_variance", "shape": [512], "dtype": "float32"}, {"name": "conv2d_1256/kernel", "shape": [1, 1, 512, 2048], "dtype": "float32"}, {"name": "conv2d_1256/bias", "shape": [2048], "dtype": "float32"}, {"name": "post_bn/gamma", "shape": [2048], "dtype": "float32"}, {"name": "post_bn/beta", "shape": [2048], "dtype": "float32"}, {"name": "post_bn/moving_mean", "shape": [2048], "dtype": "float32"}, {"name": "post_bn/moving_variance", "shape": [2048], "dtype": "float32"}, {"name": "dense_16/kernel", "shape": [2048, 512], "dtype": "float32"}, {"name": "dense_16/bias", "shape": [512], "dtype": "float32"}, {"name": "dense_17/kernel", "shape": [512, 10], "dtype": "float32"}, {"name": "dense_17/bias", "shape": [10], "dtype": "float32"}]}]}